<?xml version="1.0" ?>
<net name="yolo-v3-tf" version="10">
	<layers>
		<layer id="0" name="input_1" type="Parameter" version="opset1">
			<data shape="1,3,416,416" element_type="f32"/>
			<output>
				<port id="0" precision="FP32">
					<dim>1</dim>
					<dim>3</dim>
					<dim>416</dim>
					<dim>416</dim>
				</port>
			</output>
		</layer>
		<layer id="1" name="23382342_const" type="Const" version="opset1">
			<data offset="0" size="4" shape="" element_type="f32"/>
			<output>
				<port id="1" precision="FP32"/>
			</output>
		</layer>
		<layer id="2" name="23392343_const" type="Const" version="opset1">
			<data offset="4" size="4" shape="" element_type="f32"/>
			<output>
				<port id="1" precision="FP32"/>
			</output>
		</layer>
		<layer id="3" name="23402344_const" type="Const" version="opset1">
			<data offset="0" size="4" shape="" element_type="f32"/>
			<output>
				<port id="1" precision="FP32"/>
			</output>
		</layer>
		<layer id="4" name="23412345_const" type="Const" version="opset1">
			<data offset="4" size="4" shape="" element_type="f32"/>
			<output>
				<port id="1" precision="FP32"/>
			</output>
		</layer>
		<layer id="5" name="conv2d/Conv2D/fq_input_0" type="FakeQuantize" version="opset1">
			<data levels="256"/>
			<input>
				<port id="0">
					<dim>1</dim>
					<dim>3</dim>
					<dim>416</dim>
					<dim>416</dim>
				</port>
				<port id="1"/>
				<port id="2"/>
				<port id="3"/>
				<port id="4"/>
			</input>
			<output>
				<port id="5" precision="FP32">
					<dim>1</dim>
					<dim>3</dim>
					<dim>416</dim>
					<dim>416</dim>
				</port>
			</output>
		</layer>
		<layer id="6" name="conv2d/Conv2D/fq_weights_1/Convert_to_float/Cast_09378_const" type="Const" version="opset1">
			<data offset="8" size="864" shape="32,3,3,3" element_type="u8"/>
			<output>
				<port id="1" precision="U8">
					<dim>32</dim>
					<dim>3</dim>
					<dim>3</dim>
					<dim>3</dim>
				</port>
			</output>
		</layer>
		<layer id="7" name="conv2d/Conv2D/fq_weights_1/Convert_to_float" type="Convert" version="opset1">
			<data destination_type="f32"/>
			<input>
				<port id="0">
					<dim>32</dim>
					<dim>3</dim>
					<dim>3</dim>
					<dim>3</dim>
				</port>
			</input>
			<output>
				<port id="1" precision="FP32">
					<dim>32</dim>
					<dim>3</dim>
					<dim>3</dim>
					<dim>3</dim>
				</port>
			</output>
		</layer>
		<layer id="8" name="conv2d/Conv2D/fq_weights_1/Copy/out_low7600_const" type="Const" version="opset1">
			<data offset="0" size="4" shape="1" element_type="f32"/>
			<output>
				<port id="1" precision="FP32">
					<dim>1</dim>
				</port>
			</output>
		</layer>
		<layer id="9" name="conv2d/Conv2D/fq_weights_1/Copy/out_high7601_const" type="Const" version="opset1">
			<data offset="872" size="4" shape="1" element_type="f32"/>
			<output>
				<port id="1" precision="FP32">
					<dim>1</dim>
				</port>
			</output>
		</layer>
		<layer id="10" name="23502354_const" type="Const" version="opset1">
			<data offset="876" size="128" shape="32,1,1,1" element_type="f32"/>
			<output>
				<port id="1" precision="FP32">
					<dim>32</dim>
					<dim>1</dim>
					<dim>1</dim>
					<dim>1</dim>
				</port>
			</output>
		</layer>
		<layer id="11" name="23512355_const" type="Const" version="opset1">
			<data offset="1004" size="128" shape="32,1,1,1" element_type="f32"/>
			<output>
				<port id="1" precision="FP32">
					<dim>32</dim>
					<dim>1</dim>
					<dim>1</dim>
					<dim>1</dim>
				</port>
			</output>
		</layer>
		<layer id="12" name="conv2d/Conv2D/fq_weights_1" type="FakeQuantize" version="opset1">
			<data levels="255"/>
			<input>
				<port id="0">
					<dim>32</dim>
					<dim>3</dim>
					<dim>3</dim>
					<dim>3</dim>
				</port>
				<port id="1">
					<dim>1</dim>
				</port>
				<port id="2">
					<dim>1</dim>
				</port>
				<port id="3">
					<dim>32</dim>
					<dim>1</dim>
					<dim>1</dim>
					<dim>1</dim>
				</port>
				<port id="4">
					<dim>32</dim>
					<dim>1</dim>
					<dim>1</dim>
					<dim>1</dim>
				</port>
			</input>
			<output>
				<port id="5" precision="FP32">
					<dim>32</dim>
					<dim>3</dim>
					<dim>3</dim>
					<dim>3</dim>
				</port>
			</output>
		</layer>
		<layer id="13" name="conv2d/Conv2D" type="Convolution" version="opset1">
			<data auto_pad="same_upper" strides="1,1" dilations="1,1" pads_begin="0,0" pads_end="0,0" output_padding="0,0"/>
			<input>
				<port id="0">
					<dim>1</dim>
					<dim>3</dim>
					<dim>416</dim>
					<dim>416</dim>
				</port>
				<port id="1">
					<dim>32</dim>
					<dim>3</dim>
					<dim>3</dim>
					<dim>3</dim>
				</port>
			</input>
			<output>
				<port id="2" precision="FP32">
					<dim>1</dim>
					<dim>32</dim>
					<dim>416</dim>
					<dim>416</dim>
				</port>
			</output>
		</layer>
		<layer id="14" name="data_add_1339414049/EltwiseUnsqueeze14199_const498_const" type="Const" version="opset1">
			<data offset="1132" size="128" shape="1,32,1,1" element_type="f32"/>
			<output>
				<port id="1" precision="FP32">
					<dim>1</dim>
					<dim>32</dim>
					<dim>1</dim>
					<dim>1</dim>
				</port>
			</output>
		</layer>
		<layer id="15" name="batch_normalization/FusedBatchNormV3/variance/Fused_Add_" type="Add" version="opset1">
			<input>
				<port id="0">
					<dim>1</dim>
					<dim>32</dim>
					<dim>416</dim>
					<dim>416</dim>
				</port>
				<port id="1">
					<dim>1</dim>
					<dim>32</dim>
					<dim>1</dim>
					<dim>1</dim>
				</port>
			</input>
			<output>
				<port id="2" precision="FP32">
					<dim>1</dim>
					<dim>32</dim>
					<dim>416</dim>
					<dim>416</dim>
				</port>
			</output>
		</layer>
		<layer id="16" name="leaky_re_lu/LeakyRelu/Cast_19374_const" type="Const" version="opset1">
			<data offset="1260" size="4" shape="1" element_type="f32"/>
			<output>
				<port id="1" precision="FP32">
					<dim>1</dim>
				</port>
			</output>
		</layer>
		<layer id="17" name="leaky_re_lu/LeakyRelu" type="PReLU" version="opset1">
			<input>
				<port id="0">
					<dim>1</dim>
					<dim>32</dim>
					<dim>416</dim>
					<dim>416</dim>
				</port>
				<port id="1">
					<dim>1</dim>
				</port>
			</input>
			<output>
				<port id="2" precision="FP32">
					<dim>1</dim>
					<dim>32</dim>
					<dim>416</dim>
					<dim>416</dim>
				</port>
			</output>
		</layer>
		<layer id="18" name="26782682_const" type="Const" version="opset1">
			<data offset="1264" size="4" shape="" element_type="f32"/>
			<output>
				<port id="1" precision="FP32"/>
			</output>
		</layer>
		<layer id="19" name="26792683_const" type="Const" version="opset1">
			<data offset="1268" size="4" shape="" element_type="f32"/>
			<output>
				<port id="1" precision="FP32"/>
			</output>
		</layer>
		<layer id="20" name="26802684_const" type="Const" version="opset1">
			<data offset="1264" size="4" shape="" element_type="f32"/>
			<output>
				<port id="1" precision="FP32"/>
			</output>
		</layer>
		<layer id="21" name="26812685_const" type="Const" version="opset1">
			<data offset="1268" size="4" shape="" element_type="f32"/>
			<output>
				<port id="1" precision="FP32"/>
			</output>
		</layer>
		<layer id="22" name="conv2d_1/Conv2D/fq_input_0" type="FakeQuantize" version="opset1">
			<data levels="256"/>
			<input>
				<port id="0">
					<dim>1</dim>
					<dim>32</dim>
					<dim>416</dim>
					<dim>416</dim>
				</port>
				<port id="1"/>
				<port id="2"/>
				<port id="3"/>
				<port id="4"/>
			</input>
			<output>
				<port id="5" precision="FP32">
					<dim>1</dim>
					<dim>32</dim>
					<dim>416</dim>
					<dim>416</dim>
				</port>
			</output>
		</layer>
		<layer id="23" name="conv2d_1/Conv2D/fq_weights_1/Convert_to_float/Cast_09212_const" type="Const" version="opset1">
			<data offset="1272" size="18432" shape="64,32,3,3" element_type="u8"/>
			<output>
				<port id="1" precision="U8">
					<dim>64</dim>
					<dim>32</dim>
					<dim>3</dim>
					<dim>3</dim>
				</port>
			</output>
		</layer>
		<layer id="24" name="conv2d_1/Conv2D/fq_weights_1/Convert_to_float" type="Convert" version="opset1">
			<data destination_type="f32"/>
			<input>
				<port id="0">
					<dim>64</dim>
					<dim>32</dim>
					<dim>3</dim>
					<dim>3</dim>
				</port>
			</input>
			<output>
				<port id="1" precision="FP32">
					<dim>64</dim>
					<dim>32</dim>
					<dim>3</dim>
					<dim>3</dim>
				</port>
			</output>
		</layer>
		<layer id="25" name="conv2d_1/Conv2D/fq_weights_1/Copy/out_low8152_const" type="Const" version="opset1">
			<data offset="0" size="4" shape="1" element_type="f32"/>
			<output>
				<port id="1" precision="FP32">
					<dim>1</dim>
				</port>
			</output>
		</layer>
		<layer id="26" name="conv2d_1/Conv2D/fq_weights_1/Copy/out_high8153_const" type="Const" version="opset1">
			<data offset="872" size="4" shape="1" element_type="f32"/>
			<output>
				<port id="1" precision="FP32">
					<dim>1</dim>
				</port>
			</output>
		</layer>
		<layer id="27" name="26902694_const" type="Const" version="opset1">
			<data offset="19704" size="256" shape="64,1,1,1" element_type="f32"/>
			<output>
				<port id="1" precision="FP32">
					<dim>64</dim>
					<dim>1</dim>
					<dim>1</dim>
					<dim>1</dim>
				</port>
			</output>
		</layer>
		<layer id="28" name="26912695_const" type="Const" version="opset1">
			<data offset="19960" size="256" shape="64,1,1,1" element_type="f32"/>
			<output>
				<port id="1" precision="FP32">
					<dim>64</dim>
					<dim>1</dim>
					<dim>1</dim>
					<dim>1</dim>
				</port>
			</output>
		</layer>
		<layer id="29" name="conv2d_1/Conv2D/fq_weights_1" type="FakeQuantize" version="opset1">
			<data levels="255"/>
			<input>
				<port id="0">
					<dim>64</dim>
					<dim>32</dim>
					<dim>3</dim>
					<dim>3</dim>
				</port>
				<port id="1">
					<dim>1</dim>
				</port>
				<port id="2">
					<dim>1</dim>
				</port>
				<port id="3">
					<dim>64</dim>
					<dim>1</dim>
					<dim>1</dim>
					<dim>1</dim>
				</port>
				<port id="4">
					<dim>64</dim>
					<dim>1</dim>
					<dim>1</dim>
					<dim>1</dim>
				</port>
			</input>
			<output>
				<port id="5" precision="FP32">
					<dim>64</dim>
					<dim>32</dim>
					<dim>3</dim>
					<dim>3</dim>
				</port>
			</output>
		</layer>
		<layer id="30" name="conv2d_1/Conv2D" type="Convolution" version="opset1">
			<data strides="2,2" dilations="1,1" pads_begin="1,1" pads_end="0,0" output_padding="0,0"/>
			<input>
				<port id="0">
					<dim>1</dim>
					<dim>32</dim>
					<dim>416</dim>
					<dim>416</dim>
				</port>
				<port id="1">
					<dim>64</dim>
					<dim>32</dim>
					<dim>3</dim>
					<dim>3</dim>
				</port>
			</input>
			<output>
				<port id="2" precision="FP32">
					<dim>1</dim>
					<dim>64</dim>
					<dim>208</dim>
					<dim>208</dim>
				</port>
			</output>
		</layer>
		<layer id="31" name="data_add_133971340214051/EltwiseUnsqueeze14207_const504_const" type="Const" version="opset1">
			<data offset="20216" size="256" shape="1,64,1,1" element_type="f32"/>
			<output>
				<port id="1" precision="FP32">
					<dim>1</dim>
					<dim>64</dim>
					<dim>1</dim>
					<dim>1</dim>
				</port>
			</output>
		</layer>
		<layer id="32" name="batch_normalization_1/FusedBatchNormV3/variance/Fused_Add_" type="Add" version="opset1">
			<input>
				<port id="0">
					<dim>1</dim>
					<dim>64</dim>
					<dim>208</dim>
					<dim>208</dim>
				</port>
				<port id="1">
					<dim>1</dim>
					<dim>64</dim>
					<dim>1</dim>
					<dim>1</dim>
				</port>
			</input>
			<output>
				<port id="2" precision="FP32">
					<dim>1</dim>
					<dim>64</dim>
					<dim>208</dim>
					<dim>208</dim>
				</port>
			</output>
		</layer>
		<layer id="33" name="leaky_re_lu_1/LeakyRelu/Cast_19350_const" type="Const" version="opset1">
			<data offset="1260" size="4" shape="1" element_type="f32"/>
			<output>
				<port id="1" precision="FP32">
					<dim>1</dim>
				</port>
			</output>
		</layer>
		<layer id="34" name="leaky_re_lu_1/LeakyRelu" type="PReLU" version="opset1">
			<input>
				<port id="0">
					<dim>1</dim>
					<dim>64</dim>
					<dim>208</dim>
					<dim>208</dim>
				</port>
				<port id="1">
					<dim>1</dim>
				</port>
			</input>
			<output>
				<port id="2" precision="FP32">
					<dim>1</dim>
					<dim>64</dim>
					<dim>208</dim>
					<dim>208</dim>
				</port>
			</output>
		</layer>
		<layer id="35" name="26182622_const" type="Const" version="opset1">
			<data offset="20472" size="4" shape="" element_type="f32"/>
			<output>
				<port id="1" precision="FP32"/>
			</output>
		</layer>
		<layer id="36" name="26192623_const" type="Const" version="opset1">
			<data offset="20476" size="4" shape="" element_type="f32"/>
			<output>
				<port id="1" precision="FP32"/>
			</output>
		</layer>
		<layer id="37" name="26202624_const" type="Const" version="opset1">
			<data offset="20472" size="4" shape="" element_type="f32"/>
			<output>
				<port id="1" precision="FP32"/>
			</output>
		</layer>
		<layer id="38" name="26212625_const" type="Const" version="opset1">
			<data offset="20476" size="4" shape="" element_type="f32"/>
			<output>
				<port id="1" precision="FP32"/>
			</output>
		</layer>
		<layer id="39" name="add/add/fq_input_0" type="FakeQuantize" version="opset1">
			<data levels="256"/>
			<input>
				<port id="0">
					<dim>1</dim>
					<dim>64</dim>
					<dim>208</dim>
					<dim>208</dim>
				</port>
				<port id="1"/>
				<port id="2"/>
				<port id="3"/>
				<port id="4"/>
			</input>
			<output>
				<port id="5" precision="FP32">
					<dim>1</dim>
					<dim>64</dim>
					<dim>208</dim>
					<dim>208</dim>
				</port>
			</output>
		</layer>
		<layer id="40" name="conv2d_2/Conv2D/fq_weights_1/Convert_to_float/Cast_09428_const" type="Const" version="opset1">
			<data offset="20480" size="2048" shape="32,64,1,1" element_type="u8"/>
			<output>
				<port id="1" precision="U8">
					<dim>32</dim>
					<dim>64</dim>
					<dim>1</dim>
					<dim>1</dim>
				</port>
			</output>
		</layer>
		<layer id="41" name="conv2d_2/Conv2D/fq_weights_1/Convert_to_float" type="Convert" version="opset1">
			<data destination_type="f32"/>
			<input>
				<port id="0">
					<dim>32</dim>
					<dim>64</dim>
					<dim>1</dim>
					<dim>1</dim>
				</port>
			</input>
			<output>
				<port id="1" precision="FP32">
					<dim>32</dim>
					<dim>64</dim>
					<dim>1</dim>
					<dim>1</dim>
				</port>
			</output>
		</layer>
		<layer id="42" name="conv2d_2/Conv2D/fq_weights_1/Copy/out_low8120_const" type="Const" version="opset1">
			<data offset="0" size="4" shape="1" element_type="f32"/>
			<output>
				<port id="1" precision="FP32">
					<dim>1</dim>
				</port>
			</output>
		</layer>
		<layer id="43" name="conv2d_2/Conv2D/fq_weights_1/Copy/out_high8121_const" type="Const" version="opset1">
			<data offset="872" size="4" shape="1" element_type="f32"/>
			<output>
				<port id="1" precision="FP32">
					<dim>1</dim>
				</port>
			</output>
		</layer>
		<layer id="44" name="36303634_const" type="Const" version="opset1">
			<data offset="22528" size="128" shape="32,1,1,1" element_type="f32"/>
			<output>
				<port id="1" precision="FP32">
					<dim>32</dim>
					<dim>1</dim>
					<dim>1</dim>
					<dim>1</dim>
				</port>
			</output>
		</layer>
		<layer id="45" name="36313635_const" type="Const" version="opset1">
			<data offset="22656" size="128" shape="32,1,1,1" element_type="f32"/>
			<output>
				<port id="1" precision="FP32">
					<dim>32</dim>
					<dim>1</dim>
					<dim>1</dim>
					<dim>1</dim>
				</port>
			</output>
		</layer>
		<layer id="46" name="conv2d_2/Conv2D/fq_weights_1" type="FakeQuantize" version="opset1">
			<data levels="255"/>
			<input>
				<port id="0">
					<dim>32</dim>
					<dim>64</dim>
					<dim>1</dim>
					<dim>1</dim>
				</port>
				<port id="1">
					<dim>1</dim>
				</port>
				<port id="2">
					<dim>1</dim>
				</port>
				<port id="3">
					<dim>32</dim>
					<dim>1</dim>
					<dim>1</dim>
					<dim>1</dim>
				</port>
				<port id="4">
					<dim>32</dim>
					<dim>1</dim>
					<dim>1</dim>
					<dim>1</dim>
				</port>
			</input>
			<output>
				<port id="5" precision="FP32">
					<dim>32</dim>
					<dim>64</dim>
					<dim>1</dim>
					<dim>1</dim>
				</port>
			</output>
		</layer>
		<layer id="47" name="conv2d_2/Conv2D" type="Convolution" version="opset1">
			<data auto_pad="same_upper" strides="1,1" dilations="1,1" pads_begin="0,0" pads_end="0,0" output_padding="0,0"/>
			<input>
				<port id="0">
					<dim>1</dim>
					<dim>64</dim>
					<dim>208</dim>
					<dim>208</dim>
				</port>
				<port id="1">
					<dim>32</dim>
					<dim>64</dim>
					<dim>1</dim>
					<dim>1</dim>
				</port>
			</input>
			<output>
				<port id="2" precision="FP32">
					<dim>1</dim>
					<dim>32</dim>
					<dim>208</dim>
					<dim>208</dim>
				</port>
			</output>
		</layer>
		<layer id="48" name="data_add_134051341014053/EltwiseUnsqueeze14215_const510_const" type="Const" version="opset1">
			<data offset="22784" size="128" shape="1,32,1,1" element_type="f32"/>
			<output>
				<port id="1" precision="FP32">
					<dim>1</dim>
					<dim>32</dim>
					<dim>1</dim>
					<dim>1</dim>
				</port>
			</output>
		</layer>
		<layer id="49" name="batch_normalization_2/FusedBatchNormV3/variance/Fused_Add_" type="Add" version="opset1">
			<input>
				<port id="0">
					<dim>1</dim>
					<dim>32</dim>
					<dim>208</dim>
					<dim>208</dim>
				</port>
				<port id="1">
					<dim>1</dim>
					<dim>32</dim>
					<dim>1</dim>
					<dim>1</dim>
				</port>
			</input>
			<output>
				<port id="2" precision="FP32">
					<dim>1</dim>
					<dim>32</dim>
					<dim>208</dim>
					<dim>208</dim>
				</port>
			</output>
		</layer>
		<layer id="50" name="leaky_re_lu_2/LeakyRelu/Cast_19242_const" type="Const" version="opset1">
			<data offset="1260" size="4" shape="1" element_type="f32"/>
			<output>
				<port id="1" precision="FP32">
					<dim>1</dim>
				</port>
			</output>
		</layer>
		<layer id="51" name="leaky_re_lu_2/LeakyRelu" type="PReLU" version="opset1">
			<input>
				<port id="0">
					<dim>1</dim>
					<dim>32</dim>
					<dim>208</dim>
					<dim>208</dim>
				</port>
				<port id="1">
					<dim>1</dim>
				</port>
			</input>
			<output>
				<port id="2" precision="FP32">
					<dim>1</dim>
					<dim>32</dim>
					<dim>208</dim>
					<dim>208</dim>
				</port>
			</output>
		</layer>
		<layer id="52" name="34783482_const" type="Const" version="opset1">
			<data offset="22912" size="4" shape="" element_type="f32"/>
			<output>
				<port id="1" precision="FP32"/>
			</output>
		</layer>
		<layer id="53" name="34793483_const" type="Const" version="opset1">
			<data offset="22916" size="4" shape="" element_type="f32"/>
			<output>
				<port id="1" precision="FP32"/>
			</output>
		</layer>
		<layer id="54" name="34803484_const" type="Const" version="opset1">
			<data offset="22912" size="4" shape="" element_type="f32"/>
			<output>
				<port id="1" precision="FP32"/>
			</output>
		</layer>
		<layer id="55" name="34813485_const" type="Const" version="opset1">
			<data offset="22916" size="4" shape="" element_type="f32"/>
			<output>
				<port id="1" precision="FP32"/>
			</output>
		</layer>
		<layer id="56" name="conv2d_3/Conv2D/fq_input_0" type="FakeQuantize" version="opset1">
			<data levels="256"/>
			<input>
				<port id="0">
					<dim>1</dim>
					<dim>32</dim>
					<dim>208</dim>
					<dim>208</dim>
				</port>
				<port id="1"/>
				<port id="2"/>
				<port id="3"/>
				<port id="4"/>
			</input>
			<output>
				<port id="5" precision="FP32">
					<dim>1</dim>
					<dim>32</dim>
					<dim>208</dim>
					<dim>208</dim>
				</port>
			</output>
		</layer>
		<layer id="57" name="conv2d_3/Conv2D/fq_weights_1/Convert_to_float/Cast_09138_const" type="Const" version="opset1">
			<data offset="22920" size="18432" shape="64,32,3,3" element_type="u8"/>
			<output>
				<port id="1" precision="U8">
					<dim>64</dim>
					<dim>32</dim>
					<dim>3</dim>
					<dim>3</dim>
				</port>
			</output>
		</layer>
		<layer id="58" name="conv2d_3/Conv2D/fq_weights_1/Convert_to_float" type="Convert" version="opset1">
			<data destination_type="f32"/>
			<input>
				<port id="0">
					<dim>64</dim>
					<dim>32</dim>
					<dim>3</dim>
					<dim>3</dim>
				</port>
			</input>
			<output>
				<port id="1" precision="FP32">
					<dim>64</dim>
					<dim>32</dim>
					<dim>3</dim>
					<dim>3</dim>
				</port>
			</output>
		</layer>
		<layer id="59" name="conv2d_3/Conv2D/fq_weights_1/Copy/out_low7688_const" type="Const" version="opset1">
			<data offset="0" size="4" shape="1" element_type="f32"/>
			<output>
				<port id="1" precision="FP32">
					<dim>1</dim>
				</port>
			</output>
		</layer>
		<layer id="60" name="conv2d_3/Conv2D/fq_weights_1/Copy/out_high7689_const" type="Const" version="opset1">
			<data offset="872" size="4" shape="1" element_type="f32"/>
			<output>
				<port id="1" precision="FP32">
					<dim>1</dim>
				</port>
			</output>
		</layer>
		<layer id="61" name="34903494_const" type="Const" version="opset1">
			<data offset="41352" size="256" shape="64,1,1,1" element_type="f32"/>
			<output>
				<port id="1" precision="FP32">
					<dim>64</dim>
					<dim>1</dim>
					<dim>1</dim>
					<dim>1</dim>
				</port>
			</output>
		</layer>
		<layer id="62" name="34913495_const" type="Const" version="opset1">
			<data offset="41608" size="256" shape="64,1,1,1" element_type="f32"/>
			<output>
				<port id="1" precision="FP32">
					<dim>64</dim>
					<dim>1</dim>
					<dim>1</dim>
					<dim>1</dim>
				</port>
			</output>
		</layer>
		<layer id="63" name="conv2d_3/Conv2D/fq_weights_1" type="FakeQuantize" version="opset1">
			<data levels="255"/>
			<input>
				<port id="0">
					<dim>64</dim>
					<dim>32</dim>
					<dim>3</dim>
					<dim>3</dim>
				</port>
				<port id="1">
					<dim>1</dim>
				</port>
				<port id="2">
					<dim>1</dim>
				</port>
				<port id="3">
					<dim>64</dim>
					<dim>1</dim>
					<dim>1</dim>
					<dim>1</dim>
				</port>
				<port id="4">
					<dim>64</dim>
					<dim>1</dim>
					<dim>1</dim>
					<dim>1</dim>
				</port>
			</input>
			<output>
				<port id="5" precision="FP32">
					<dim>64</dim>
					<dim>32</dim>
					<dim>3</dim>
					<dim>3</dim>
				</port>
			</output>
		</layer>
		<layer id="64" name="conv2d_3/Conv2D" type="Convolution" version="opset1">
			<data auto_pad="same_upper" strides="1,1" dilations="1,1" pads_begin="0,0" pads_end="0,0" output_padding="0,0"/>
			<input>
				<port id="0">
					<dim>1</dim>
					<dim>32</dim>
					<dim>208</dim>
					<dim>208</dim>
				</port>
				<port id="1">
					<dim>64</dim>
					<dim>32</dim>
					<dim>3</dim>
					<dim>3</dim>
				</port>
			</input>
			<output>
				<port id="2" precision="FP32">
					<dim>1</dim>
					<dim>64</dim>
					<dim>208</dim>
					<dim>208</dim>
				</port>
			</output>
		</layer>
		<layer id="65" name="data_add_134131341814055/EltwiseUnsqueeze14223_const516_const" type="Const" version="opset1">
			<data offset="41864" size="256" shape="1,64,1,1" element_type="f32"/>
			<output>
				<port id="1" precision="FP32">
					<dim>1</dim>
					<dim>64</dim>
					<dim>1</dim>
					<dim>1</dim>
				</port>
			</output>
		</layer>
		<layer id="66" name="batch_normalization_3/FusedBatchNormV3/variance/Fused_Add_" type="Add" version="opset1">
			<input>
				<port id="0">
					<dim>1</dim>
					<dim>64</dim>
					<dim>208</dim>
					<dim>208</dim>
				</port>
				<port id="1">
					<dim>1</dim>
					<dim>64</dim>
					<dim>1</dim>
					<dim>1</dim>
				</port>
			</input>
			<output>
				<port id="2" precision="FP32">
					<dim>1</dim>
					<dim>64</dim>
					<dim>208</dim>
					<dim>208</dim>
				</port>
			</output>
		</layer>
		<layer id="67" name="leaky_re_lu_3/LeakyRelu/Cast_19218_const" type="Const" version="opset1">
			<data offset="1260" size="4" shape="1" element_type="f32"/>
			<output>
				<port id="1" precision="FP32">
					<dim>1</dim>
				</port>
			</output>
		</layer>
		<layer id="68" name="leaky_re_lu_3/LeakyRelu" type="PReLU" version="opset1">
			<input>
				<port id="0">
					<dim>1</dim>
					<dim>64</dim>
					<dim>208</dim>
					<dim>208</dim>
				</port>
				<port id="1">
					<dim>1</dim>
				</port>
			</input>
			<output>
				<port id="2" precision="FP32">
					<dim>1</dim>
					<dim>64</dim>
					<dim>208</dim>
					<dim>208</dim>
				</port>
			</output>
		</layer>
		<layer id="69" name="26282632_const" type="Const" version="opset1">
			<data offset="42120" size="4" shape="" element_type="f32"/>
			<output>
				<port id="1" precision="FP32"/>
			</output>
		</layer>
		<layer id="70" name="26292633_const" type="Const" version="opset1">
			<data offset="42124" size="4" shape="" element_type="f32"/>
			<output>
				<port id="1" precision="FP32"/>
			</output>
		</layer>
		<layer id="71" name="26302634_const" type="Const" version="opset1">
			<data offset="42120" size="4" shape="" element_type="f32"/>
			<output>
				<port id="1" precision="FP32"/>
			</output>
		</layer>
		<layer id="72" name="26312635_const" type="Const" version="opset1">
			<data offset="42124" size="4" shape="" element_type="f32"/>
			<output>
				<port id="1" precision="FP32"/>
			</output>
		</layer>
		<layer id="73" name="add/add/fq_input_1" type="FakeQuantize" version="opset1">
			<data levels="256"/>
			<input>
				<port id="0">
					<dim>1</dim>
					<dim>64</dim>
					<dim>208</dim>
					<dim>208</dim>
				</port>
				<port id="1"/>
				<port id="2"/>
				<port id="3"/>
				<port id="4"/>
			</input>
			<output>
				<port id="5" precision="FP32">
					<dim>1</dim>
					<dim>64</dim>
					<dim>208</dim>
					<dim>208</dim>
				</port>
			</output>
		</layer>
		<layer id="74" name="add/add" type="Add" version="opset1">
			<input>
				<port id="0">
					<dim>1</dim>
					<dim>64</dim>
					<dim>208</dim>
					<dim>208</dim>
				</port>
				<port id="1">
					<dim>1</dim>
					<dim>64</dim>
					<dim>208</dim>
					<dim>208</dim>
				</port>
			</input>
			<output>
				<port id="2" precision="FP32">
					<dim>1</dim>
					<dim>64</dim>
					<dim>208</dim>
					<dim>208</dim>
				</port>
			</output>
		</layer>
		<layer id="75" name="20782082_const" type="Const" version="opset1">
			<data offset="42128" size="4" shape="" element_type="f32"/>
			<output>
				<port id="1" precision="FP32"/>
			</output>
		</layer>
		<layer id="76" name="20792083_const" type="Const" version="opset1">
			<data offset="42132" size="4" shape="" element_type="f32"/>
			<output>
				<port id="1" precision="FP32"/>
			</output>
		</layer>
		<layer id="77" name="20802084_const" type="Const" version="opset1">
			<data offset="42128" size="4" shape="" element_type="f32"/>
			<output>
				<port id="1" precision="FP32"/>
			</output>
		</layer>
		<layer id="78" name="20812085_const" type="Const" version="opset1">
			<data offset="42132" size="4" shape="" element_type="f32"/>
			<output>
				<port id="1" precision="FP32"/>
			</output>
		</layer>
		<layer id="79" name="conv2d_4/Conv2D/fq_input_0" type="FakeQuantize" version="opset1">
			<data levels="256"/>
			<input>
				<port id="0">
					<dim>1</dim>
					<dim>64</dim>
					<dim>208</dim>
					<dim>208</dim>
				</port>
				<port id="1"/>
				<port id="2"/>
				<port id="3"/>
				<port id="4"/>
			</input>
			<output>
				<port id="5" precision="FP32">
					<dim>1</dim>
					<dim>64</dim>
					<dim>208</dim>
					<dim>208</dim>
				</port>
			</output>
		</layer>
		<layer id="80" name="conv2d_4/Conv2D/fq_weights_1/Convert_to_float/Cast_09352_const" type="Const" version="opset1">
			<data offset="42136" size="73728" shape="128,64,3,3" element_type="u8"/>
			<output>
				<port id="1" precision="U8">
					<dim>128</dim>
					<dim>64</dim>
					<dim>3</dim>
					<dim>3</dim>
				</port>
			</output>
		</layer>
		<layer id="81" name="conv2d_4/Conv2D/fq_weights_1/Convert_to_float" type="Convert" version="opset1">
			<data destination_type="f32"/>
			<input>
				<port id="0">
					<dim>128</dim>
					<dim>64</dim>
					<dim>3</dim>
					<dim>3</dim>
				</port>
			</input>
			<output>
				<port id="1" precision="FP32">
					<dim>128</dim>
					<dim>64</dim>
					<dim>3</dim>
					<dim>3</dim>
				</port>
			</output>
		</layer>
		<layer id="82" name="conv2d_4/Conv2D/fq_weights_1/Copy/out_low8032_const" type="Const" version="opset1">
			<data offset="0" size="4" shape="1" element_type="f32"/>
			<output>
				<port id="1" precision="FP32">
					<dim>1</dim>
				</port>
			</output>
		</layer>
		<layer id="83" name="conv2d_4/Conv2D/fq_weights_1/Copy/out_high8033_const" type="Const" version="opset1">
			<data offset="872" size="4" shape="1" element_type="f32"/>
			<output>
				<port id="1" precision="FP32">
					<dim>1</dim>
				</port>
			</output>
		</layer>
		<layer id="84" name="20902094_const" type="Const" version="opset1">
			<data offset="115864" size="512" shape="128,1,1,1" element_type="f32"/>
			<output>
				<port id="1" precision="FP32">
					<dim>128</dim>
					<dim>1</dim>
					<dim>1</dim>
					<dim>1</dim>
				</port>
			</output>
		</layer>
		<layer id="85" name="20912095_const" type="Const" version="opset1">
			<data offset="116376" size="512" shape="128,1,1,1" element_type="f32"/>
			<output>
				<port id="1" precision="FP32">
					<dim>128</dim>
					<dim>1</dim>
					<dim>1</dim>
					<dim>1</dim>
				</port>
			</output>
		</layer>
		<layer id="86" name="conv2d_4/Conv2D/fq_weights_1" type="FakeQuantize" version="opset1">
			<data levels="255"/>
			<input>
				<port id="0">
					<dim>128</dim>
					<dim>64</dim>
					<dim>3</dim>
					<dim>3</dim>
				</port>
				<port id="1">
					<dim>1</dim>
				</port>
				<port id="2">
					<dim>1</dim>
				</port>
				<port id="3">
					<dim>128</dim>
					<dim>1</dim>
					<dim>1</dim>
					<dim>1</dim>
				</port>
				<port id="4">
					<dim>128</dim>
					<dim>1</dim>
					<dim>1</dim>
					<dim>1</dim>
				</port>
			</input>
			<output>
				<port id="5" precision="FP32">
					<dim>128</dim>
					<dim>64</dim>
					<dim>3</dim>
					<dim>3</dim>
				</port>
			</output>
		</layer>
		<layer id="87" name="conv2d_4/Conv2D" type="Convolution" version="opset1">
			<data strides="2,2" dilations="1,1" pads_begin="1,1" pads_end="0,0" output_padding="0,0"/>
			<input>
				<port id="0">
					<dim>1</dim>
					<dim>64</dim>
					<dim>208</dim>
					<dim>208</dim>
				</port>
				<port id="1">
					<dim>128</dim>
					<dim>64</dim>
					<dim>3</dim>
					<dim>3</dim>
				</port>
			</input>
			<output>
				<port id="2" precision="FP32">
					<dim>1</dim>
					<dim>128</dim>
					<dim>104</dim>
					<dim>104</dim>
				</port>
			</output>
		</layer>
		<layer id="88" name="data_add_134211342614057/EltwiseUnsqueeze14231_const523_const" type="Const" version="opset1">
			<data offset="116888" size="512" shape="1,128,1,1" element_type="f32"/>
			<output>
				<port id="1" precision="FP32">
					<dim>1</dim>
					<dim>128</dim>
					<dim>1</dim>
					<dim>1</dim>
				</port>
			</output>
		</layer>
		<layer id="89" name="batch_normalization_4/FusedBatchNormV3/variance/Fused_Add_" type="Add" version="opset1">
			<input>
				<port id="0">
					<dim>1</dim>
					<dim>128</dim>
					<dim>104</dim>
					<dim>104</dim>
				</port>
				<port id="1">
					<dim>1</dim>
					<dim>128</dim>
					<dim>1</dim>
					<dim>1</dim>
				</port>
			</input>
			<output>
				<port id="2" precision="FP32">
					<dim>1</dim>
					<dim>128</dim>
					<dim>104</dim>
					<dim>104</dim>
				</port>
			</output>
		</layer>
		<layer id="90" name="leaky_re_lu_4/LeakyRelu/Cast_19356_const" type="Const" version="opset1">
			<data offset="1260" size="4" shape="1" element_type="f32"/>
			<output>
				<port id="1" precision="FP32">
					<dim>1</dim>
				</port>
			</output>
		</layer>
		<layer id="91" name="leaky_re_lu_4/LeakyRelu" type="PReLU" version="opset1">
			<input>
				<port id="0">
					<dim>1</dim>
					<dim>128</dim>
					<dim>104</dim>
					<dim>104</dim>
				</port>
				<port id="1">
					<dim>1</dim>
				</port>
			</input>
			<output>
				<port id="2" precision="FP32">
					<dim>1</dim>
					<dim>128</dim>
					<dim>104</dim>
					<dim>104</dim>
				</port>
			</output>
		</layer>
		<layer id="92" name="35383542_const" type="Const" version="opset1">
			<data offset="117400" size="4" shape="" element_type="f32"/>
			<output>
				<port id="1" precision="FP32"/>
			</output>
		</layer>
		<layer id="93" name="35393543_const" type="Const" version="opset1">
			<data offset="117404" size="4" shape="" element_type="f32"/>
			<output>
				<port id="1" precision="FP32"/>
			</output>
		</layer>
		<layer id="94" name="35403544_const" type="Const" version="opset1">
			<data offset="117400" size="4" shape="" element_type="f32"/>
			<output>
				<port id="1" precision="FP32"/>
			</output>
		</layer>
		<layer id="95" name="35413545_const" type="Const" version="opset1">
			<data offset="117404" size="4" shape="" element_type="f32"/>
			<output>
				<port id="1" precision="FP32"/>
			</output>
		</layer>
		<layer id="96" name="add_1/add/fq_input_0" type="FakeQuantize" version="opset1">
			<data levels="256"/>
			<input>
				<port id="0">
					<dim>1</dim>
					<dim>128</dim>
					<dim>104</dim>
					<dim>104</dim>
				</port>
				<port id="1"/>
				<port id="2"/>
				<port id="3"/>
				<port id="4"/>
			</input>
			<output>
				<port id="5" precision="FP32">
					<dim>1</dim>
					<dim>128</dim>
					<dim>104</dim>
					<dim>104</dim>
				</port>
			</output>
		</layer>
		<layer id="97" name="conv2d_5/Conv2D/fq_weights_1/Convert_to_float/Cast_09302_const" type="Const" version="opset1">
			<data offset="117408" size="8192" shape="64,128,1,1" element_type="u8"/>
			<output>
				<port id="1" precision="U8">
					<dim>64</dim>
					<dim>128</dim>
					<dim>1</dim>
					<dim>1</dim>
				</port>
			</output>
		</layer>
		<layer id="98" name="conv2d_5/Conv2D/fq_weights_1/Convert_to_float" type="Convert" version="opset1">
			<data destination_type="f32"/>
			<input>
				<port id="0">
					<dim>64</dim>
					<dim>128</dim>
					<dim>1</dim>
					<dim>1</dim>
				</port>
			</input>
			<output>
				<port id="1" precision="FP32">
					<dim>64</dim>
					<dim>128</dim>
					<dim>1</dim>
					<dim>1</dim>
				</port>
			</output>
		</layer>
		<layer id="99" name="conv2d_5/Conv2D/fq_weights_1/Copy/out_low7640_const" type="Const" version="opset1">
			<data offset="0" size="4" shape="1" element_type="f32"/>
			<output>
				<port id="1" precision="FP32">
					<dim>1</dim>
				</port>
			</output>
		</layer>
		<layer id="100" name="conv2d_5/Conv2D/fq_weights_1/Copy/out_high7641_const" type="Const" version="opset1">
			<data offset="872" size="4" shape="1" element_type="f32"/>
			<output>
				<port id="1" precision="FP32">
					<dim>1</dim>
				</port>
			</output>
		</layer>
		<layer id="101" name="19501954_const" type="Const" version="opset1">
			<data offset="125600" size="256" shape="64,1,1,1" element_type="f32"/>
			<output>
				<port id="1" precision="FP32">
					<dim>64</dim>
					<dim>1</dim>
					<dim>1</dim>
					<dim>1</dim>
				</port>
			</output>
		</layer>
		<layer id="102" name="19511955_const" type="Const" version="opset1">
			<data offset="125856" size="256" shape="64,1,1,1" element_type="f32"/>
			<output>
				<port id="1" precision="FP32">
					<dim>64</dim>
					<dim>1</dim>
					<dim>1</dim>
					<dim>1</dim>
				</port>
			</output>
		</layer>
		<layer id="103" name="conv2d_5/Conv2D/fq_weights_1" type="FakeQuantize" version="opset1">
			<data levels="255"/>
			<input>
				<port id="0">
					<dim>64</dim>
					<dim>128</dim>
					<dim>1</dim>
					<dim>1</dim>
				</port>
				<port id="1">
					<dim>1</dim>
				</port>
				<port id="2">
					<dim>1</dim>
				</port>
				<port id="3">
					<dim>64</dim>
					<dim>1</dim>
					<dim>1</dim>
					<dim>1</dim>
				</port>
				<port id="4">
					<dim>64</dim>
					<dim>1</dim>
					<dim>1</dim>
					<dim>1</dim>
				</port>
			</input>
			<output>
				<port id="5" precision="FP32">
					<dim>64</dim>
					<dim>128</dim>
					<dim>1</dim>
					<dim>1</dim>
				</port>
			</output>
		</layer>
		<layer id="104" name="conv2d_5/Conv2D" type="Convolution" version="opset1">
			<data auto_pad="same_upper" strides="1,1" dilations="1,1" pads_begin="0,0" pads_end="0,0" output_padding="0,0"/>
			<input>
				<port id="0">
					<dim>1</dim>
					<dim>128</dim>
					<dim>104</dim>
					<dim>104</dim>
				</port>
				<port id="1">
					<dim>64</dim>
					<dim>128</dim>
					<dim>1</dim>
					<dim>1</dim>
				</port>
			</input>
			<output>
				<port id="2" precision="FP32">
					<dim>1</dim>
					<dim>64</dim>
					<dim>104</dim>
					<dim>104</dim>
				</port>
			</output>
		</layer>
		<layer id="105" name="data_add_134291343414059/EltwiseUnsqueeze14239_const529_const" type="Const" version="opset1">
			<data offset="126112" size="256" shape="1,64,1,1" element_type="f32"/>
			<output>
				<port id="1" precision="FP32">
					<dim>1</dim>
					<dim>64</dim>
					<dim>1</dim>
					<dim>1</dim>
				</port>
			</output>
		</layer>
		<layer id="106" name="batch_normalization_5/FusedBatchNormV3/variance/Fused_Add_" type="Add" version="opset1">
			<input>
				<port id="0">
					<dim>1</dim>
					<dim>64</dim>
					<dim>104</dim>
					<dim>104</dim>
				</port>
				<port id="1">
					<dim>1</dim>
					<dim>64</dim>
					<dim>1</dim>
					<dim>1</dim>
				</port>
			</input>
			<output>
				<port id="2" precision="FP32">
					<dim>1</dim>
					<dim>64</dim>
					<dim>104</dim>
					<dim>104</dim>
				</port>
			</output>
		</layer>
		<layer id="107" name="leaky_re_lu_5/LeakyRelu/Cast_19340_const" type="Const" version="opset1">
			<data offset="1260" size="4" shape="1" element_type="f32"/>
			<output>
				<port id="1" precision="FP32">
					<dim>1</dim>
				</port>
			</output>
		</layer>
		<layer id="108" name="leaky_re_lu_5/LeakyRelu" type="PReLU" version="opset1">
			<input>
				<port id="0">
					<dim>1</dim>
					<dim>64</dim>
					<dim>104</dim>
					<dim>104</dim>
				</port>
				<port id="1">
					<dim>1</dim>
				</port>
			</input>
			<output>
				<port id="2" precision="FP32">
					<dim>1</dim>
					<dim>64</dim>
					<dim>104</dim>
					<dim>104</dim>
				</port>
			</output>
		</layer>
		<layer id="109" name="33383342_const" type="Const" version="opset1">
			<data offset="126368" size="4" shape="" element_type="f32"/>
			<output>
				<port id="1" precision="FP32"/>
			</output>
		</layer>
		<layer id="110" name="33393343_const" type="Const" version="opset1">
			<data offset="126372" size="4" shape="" element_type="f32"/>
			<output>
				<port id="1" precision="FP32"/>
			</output>
		</layer>
		<layer id="111" name="33403344_const" type="Const" version="opset1">
			<data offset="126368" size="4" shape="" element_type="f32"/>
			<output>
				<port id="1" precision="FP32"/>
			</output>
		</layer>
		<layer id="112" name="33413345_const" type="Const" version="opset1">
			<data offset="126372" size="4" shape="" element_type="f32"/>
			<output>
				<port id="1" precision="FP32"/>
			</output>
		</layer>
		<layer id="113" name="conv2d_6/Conv2D/fq_input_0" type="FakeQuantize" version="opset1">
			<data levels="256"/>
			<input>
				<port id="0">
					<dim>1</dim>
					<dim>64</dim>
					<dim>104</dim>
					<dim>104</dim>
				</port>
				<port id="1"/>
				<port id="2"/>
				<port id="3"/>
				<port id="4"/>
			</input>
			<output>
				<port id="5" precision="FP32">
					<dim>1</dim>
					<dim>64</dim>
					<dim>104</dim>
					<dim>104</dim>
				</port>
			</output>
		</layer>
		<layer id="114" name="conv2d_6/Conv2D/fq_weights_1/Convert_to_float/Cast_09202_const" type="Const" version="opset1">
			<data offset="126376" size="73728" shape="128,64,3,3" element_type="u8"/>
			<output>
				<port id="1" precision="U8">
					<dim>128</dim>
					<dim>64</dim>
					<dim>3</dim>
					<dim>3</dim>
				</port>
			</output>
		</layer>
		<layer id="115" name="conv2d_6/Conv2D/fq_weights_1/Convert_to_float" type="Convert" version="opset1">
			<data destination_type="f32"/>
			<input>
				<port id="0">
					<dim>128</dim>
					<dim>64</dim>
					<dim>3</dim>
					<dim>3</dim>
				</port>
			</input>
			<output>
				<port id="1" precision="FP32">
					<dim>128</dim>
					<dim>64</dim>
					<dim>3</dim>
					<dim>3</dim>
				</port>
			</output>
		</layer>
		<layer id="116" name="conv2d_6/Conv2D/fq_weights_1/Copy/out_low7840_const" type="Const" version="opset1">
			<data offset="0" size="4" shape="1" element_type="f32"/>
			<output>
				<port id="1" precision="FP32">
					<dim>1</dim>
				</port>
			</output>
		</layer>
		<layer id="117" name="conv2d_6/Conv2D/fq_weights_1/Copy/out_high7841_const" type="Const" version="opset1">
			<data offset="872" size="4" shape="1" element_type="f32"/>
			<output>
				<port id="1" precision="FP32">
					<dim>1</dim>
				</port>
			</output>
		</layer>
		<layer id="118" name="33503354_const" type="Const" version="opset1">
			<data offset="200104" size="512" shape="128,1,1,1" element_type="f32"/>
			<output>
				<port id="1" precision="FP32">
					<dim>128</dim>
					<dim>1</dim>
					<dim>1</dim>
					<dim>1</dim>
				</port>
			</output>
		</layer>
		<layer id="119" name="33513355_const" type="Const" version="opset1">
			<data offset="200616" size="512" shape="128,1,1,1" element_type="f32"/>
			<output>
				<port id="1" precision="FP32">
					<dim>128</dim>
					<dim>1</dim>
					<dim>1</dim>
					<dim>1</dim>
				</port>
			</output>
		</layer>
		<layer id="120" name="conv2d_6/Conv2D/fq_weights_1" type="FakeQuantize" version="opset1">
			<data levels="255"/>
			<input>
				<port id="0">
					<dim>128</dim>
					<dim>64</dim>
					<dim>3</dim>
					<dim>3</dim>
				</port>
				<port id="1">
					<dim>1</dim>
				</port>
				<port id="2">
					<dim>1</dim>
				</port>
				<port id="3">
					<dim>128</dim>
					<dim>1</dim>
					<dim>1</dim>
					<dim>1</dim>
				</port>
				<port id="4">
					<dim>128</dim>
					<dim>1</dim>
					<dim>1</dim>
					<dim>1</dim>
				</port>
			</input>
			<output>
				<port id="5" precision="FP32">
					<dim>128</dim>
					<dim>64</dim>
					<dim>3</dim>
					<dim>3</dim>
				</port>
			</output>
		</layer>
		<layer id="121" name="conv2d_6/Conv2D" type="Convolution" version="opset1">
			<data auto_pad="same_upper" strides="1,1" dilations="1,1" pads_begin="0,0" pads_end="0,0" output_padding="0,0"/>
			<input>
				<port id="0">
					<dim>1</dim>
					<dim>64</dim>
					<dim>104</dim>
					<dim>104</dim>
				</port>
				<port id="1">
					<dim>128</dim>
					<dim>64</dim>
					<dim>3</dim>
					<dim>3</dim>
				</port>
			</input>
			<output>
				<port id="2" precision="FP32">
					<dim>1</dim>
					<dim>128</dim>
					<dim>104</dim>
					<dim>104</dim>
				</port>
			</output>
		</layer>
		<layer id="122" name="data_add_134371344214061/EltwiseUnsqueeze14247_const535_const" type="Const" version="opset1">
			<data offset="201128" size="512" shape="1,128,1,1" element_type="f32"/>
			<output>
				<port id="1" precision="FP32">
					<dim>1</dim>
					<dim>128</dim>
					<dim>1</dim>
					<dim>1</dim>
				</port>
			</output>
		</layer>
		<layer id="123" name="batch_normalization_6/FusedBatchNormV3/variance/Fused_Add_" type="Add" version="opset1">
			<input>
				<port id="0">
					<dim>1</dim>
					<dim>128</dim>
					<dim>104</dim>
					<dim>104</dim>
				</port>
				<port id="1">
					<dim>1</dim>
					<dim>128</dim>
					<dim>1</dim>
					<dim>1</dim>
				</port>
			</input>
			<output>
				<port id="2" precision="FP32">
					<dim>1</dim>
					<dim>128</dim>
					<dim>104</dim>
					<dim>104</dim>
				</port>
			</output>
		</layer>
		<layer id="124" name="leaky_re_lu_6/LeakyRelu/Cast_19394_const" type="Const" version="opset1">
			<data offset="1260" size="4" shape="1" element_type="f32"/>
			<output>
				<port id="1" precision="FP32">
					<dim>1</dim>
				</port>
			</output>
		</layer>
		<layer id="125" name="leaky_re_lu_6/LeakyRelu" type="PReLU" version="opset1">
			<input>
				<port id="0">
					<dim>1</dim>
					<dim>128</dim>
					<dim>104</dim>
					<dim>104</dim>
				</port>
				<port id="1">
					<dim>1</dim>
				</port>
			</input>
			<output>
				<port id="2" precision="FP32">
					<dim>1</dim>
					<dim>128</dim>
					<dim>104</dim>
					<dim>104</dim>
				</port>
			</output>
		</layer>
		<layer id="126" name="35483552_const" type="Const" version="opset1">
			<data offset="201640" size="4" shape="" element_type="f32"/>
			<output>
				<port id="1" precision="FP32"/>
			</output>
		</layer>
		<layer id="127" name="35493553_const" type="Const" version="opset1">
			<data offset="201644" size="4" shape="" element_type="f32"/>
			<output>
				<port id="1" precision="FP32"/>
			</output>
		</layer>
		<layer id="128" name="35503554_const" type="Const" version="opset1">
			<data offset="201640" size="4" shape="" element_type="f32"/>
			<output>
				<port id="1" precision="FP32"/>
			</output>
		</layer>
		<layer id="129" name="35513555_const" type="Const" version="opset1">
			<data offset="201644" size="4" shape="" element_type="f32"/>
			<output>
				<port id="1" precision="FP32"/>
			</output>
		</layer>
		<layer id="130" name="add_1/add/fq_input_1" type="FakeQuantize" version="opset1">
			<data levels="256"/>
			<input>
				<port id="0">
					<dim>1</dim>
					<dim>128</dim>
					<dim>104</dim>
					<dim>104</dim>
				</port>
				<port id="1"/>
				<port id="2"/>
				<port id="3"/>
				<port id="4"/>
			</input>
			<output>
				<port id="5" precision="FP32">
					<dim>1</dim>
					<dim>128</dim>
					<dim>104</dim>
					<dim>104</dim>
				</port>
			</output>
		</layer>
		<layer id="131" name="add_1/add" type="Add" version="opset1">
			<input>
				<port id="0">
					<dim>1</dim>
					<dim>128</dim>
					<dim>104</dim>
					<dim>104</dim>
				</port>
				<port id="1">
					<dim>1</dim>
					<dim>128</dim>
					<dim>104</dim>
					<dim>104</dim>
				</port>
			</input>
			<output>
				<port id="2" precision="FP32">
					<dim>1</dim>
					<dim>128</dim>
					<dim>104</dim>
					<dim>104</dim>
				</port>
			</output>
		</layer>
		<layer id="132" name="23582362_const" type="Const" version="opset1">
			<data offset="201648" size="4" shape="" element_type="f32"/>
			<output>
				<port id="1" precision="FP32"/>
			</output>
		</layer>
		<layer id="133" name="23592363_const" type="Const" version="opset1">
			<data offset="201652" size="4" shape="" element_type="f32"/>
			<output>
				<port id="1" precision="FP32"/>
			</output>
		</layer>
		<layer id="134" name="23602364_const" type="Const" version="opset1">
			<data offset="201648" size="4" shape="" element_type="f32"/>
			<output>
				<port id="1" precision="FP32"/>
			</output>
		</layer>
		<layer id="135" name="23612365_const" type="Const" version="opset1">
			<data offset="201652" size="4" shape="" element_type="f32"/>
			<output>
				<port id="1" precision="FP32"/>
			</output>
		</layer>
		<layer id="136" name="add_2/add/fq_input_0" type="FakeQuantize" version="opset1">
			<data levels="256"/>
			<input>
				<port id="0">
					<dim>1</dim>
					<dim>128</dim>
					<dim>104</dim>
					<dim>104</dim>
				</port>
				<port id="1"/>
				<port id="2"/>
				<port id="3"/>
				<port id="4"/>
			</input>
			<output>
				<port id="5" precision="FP32">
					<dim>1</dim>
					<dim>128</dim>
					<dim>104</dim>
					<dim>104</dim>
				</port>
			</output>
		</layer>
		<layer id="137" name="conv2d_7/Conv2D/fq_weights_1/Convert_to_float/Cast_09326_const" type="Const" version="opset1">
			<data offset="201656" size="8192" shape="64,128,1,1" element_type="u8"/>
			<output>
				<port id="1" precision="U8">
					<dim>64</dim>
					<dim>128</dim>
					<dim>1</dim>
					<dim>1</dim>
				</port>
			</output>
		</layer>
		<layer id="138" name="conv2d_7/Conv2D/fq_weights_1/Convert_to_float" type="Convert" version="opset1">
			<data destination_type="f32"/>
			<input>
				<port id="0">
					<dim>64</dim>
					<dim>128</dim>
					<dim>1</dim>
					<dim>1</dim>
				</port>
			</input>
			<output>
				<port id="1" precision="FP32">
					<dim>64</dim>
					<dim>128</dim>
					<dim>1</dim>
					<dim>1</dim>
				</port>
			</output>
		</layer>
		<layer id="139" name="conv2d_7/Conv2D/fq_weights_1/Copy/out_low7672_const" type="Const" version="opset1">
			<data offset="0" size="4" shape="1" element_type="f32"/>
			<output>
				<port id="1" precision="FP32">
					<dim>1</dim>
				</port>
			</output>
		</layer>
		<layer id="140" name="conv2d_7/Conv2D/fq_weights_1/Copy/out_high7673_const" type="Const" version="opset1">
			<data offset="872" size="4" shape="1" element_type="f32"/>
			<output>
				<port id="1" precision="FP32">
					<dim>1</dim>
				</port>
			</output>
		</layer>
		<layer id="141" name="33303334_const" type="Const" version="opset1">
			<data offset="209848" size="256" shape="64,1,1,1" element_type="f32"/>
			<output>
				<port id="1" precision="FP32">
					<dim>64</dim>
					<dim>1</dim>
					<dim>1</dim>
					<dim>1</dim>
				</port>
			</output>
		</layer>
		<layer id="142" name="33313335_const" type="Const" version="opset1">
			<data offset="210104" size="256" shape="64,1,1,1" element_type="f32"/>
			<output>
				<port id="1" precision="FP32">
					<dim>64</dim>
					<dim>1</dim>
					<dim>1</dim>
					<dim>1</dim>
				</port>
			</output>
		</layer>
		<layer id="143" name="conv2d_7/Conv2D/fq_weights_1" type="FakeQuantize" version="opset1">
			<data levels="255"/>
			<input>
				<port id="0">
					<dim>64</dim>
					<dim>128</dim>
					<dim>1</dim>
					<dim>1</dim>
				</port>
				<port id="1">
					<dim>1</dim>
				</port>
				<port id="2">
					<dim>1</dim>
				</port>
				<port id="3">
					<dim>64</dim>
					<dim>1</dim>
					<dim>1</dim>
					<dim>1</dim>
				</port>
				<port id="4">
					<dim>64</dim>
					<dim>1</dim>
					<dim>1</dim>
					<dim>1</dim>
				</port>
			</input>
			<output>
				<port id="5" precision="FP32">
					<dim>64</dim>
					<dim>128</dim>
					<dim>1</dim>
					<dim>1</dim>
				</port>
			</output>
		</layer>
		<layer id="144" name="conv2d_7/Conv2D" type="Convolution" version="opset1">
			<data auto_pad="same_upper" strides="1,1" dilations="1,1" pads_begin="0,0" pads_end="0,0" output_padding="0,0"/>
			<input>
				<port id="0">
					<dim>1</dim>
					<dim>128</dim>
					<dim>104</dim>
					<dim>104</dim>
				</port>
				<port id="1">
					<dim>64</dim>
					<dim>128</dim>
					<dim>1</dim>
					<dim>1</dim>
				</port>
			</input>
			<output>
				<port id="2" precision="FP32">
					<dim>1</dim>
					<dim>64</dim>
					<dim>104</dim>
					<dim>104</dim>
				</port>
			</output>
		</layer>
		<layer id="145" name="data_add_134451345014063/EltwiseUnsqueeze14255_const542_const" type="Const" version="opset1">
			<data offset="210360" size="256" shape="1,64,1,1" element_type="f32"/>
			<output>
				<port id="1" precision="FP32">
					<dim>1</dim>
					<dim>64</dim>
					<dim>1</dim>
					<dim>1</dim>
				</port>
			</output>
		</layer>
		<layer id="146" name="batch_normalization_7/FusedBatchNormV3/variance/Fused_Add_" type="Add" version="opset1">
			<input>
				<port id="0">
					<dim>1</dim>
					<dim>64</dim>
					<dim>104</dim>
					<dim>104</dim>
				</port>
				<port id="1">
					<dim>1</dim>
					<dim>64</dim>
					<dim>1</dim>
					<dim>1</dim>
				</port>
			</input>
			<output>
				<port id="2" precision="FP32">
					<dim>1</dim>
					<dim>64</dim>
					<dim>104</dim>
					<dim>104</dim>
				</port>
			</output>
		</layer>
		<layer id="147" name="leaky_re_lu_7/LeakyRelu/Cast_19226_const" type="Const" version="opset1">
			<data offset="1260" size="4" shape="1" element_type="f32"/>
			<output>
				<port id="1" precision="FP32">
					<dim>1</dim>
				</port>
			</output>
		</layer>
		<layer id="148" name="leaky_re_lu_7/LeakyRelu" type="PReLU" version="opset1">
			<input>
				<port id="0">
					<dim>1</dim>
					<dim>64</dim>
					<dim>104</dim>
					<dim>104</dim>
				</port>
				<port id="1">
					<dim>1</dim>
				</port>
			</input>
			<output>
				<port id="2" precision="FP32">
					<dim>1</dim>
					<dim>64</dim>
					<dim>104</dim>
					<dim>104</dim>
				</port>
			</output>
		</layer>
		<layer id="149" name="36383642_const" type="Const" version="opset1">
			<data offset="210616" size="4" shape="" element_type="f32"/>
			<output>
				<port id="1" precision="FP32"/>
			</output>
		</layer>
		<layer id="150" name="36393643_const" type="Const" version="opset1">
			<data offset="210620" size="4" shape="" element_type="f32"/>
			<output>
				<port id="1" precision="FP32"/>
			</output>
		</layer>
		<layer id="151" name="36403644_const" type="Const" version="opset1">
			<data offset="210616" size="4" shape="" element_type="f32"/>
			<output>
				<port id="1" precision="FP32"/>
			</output>
		</layer>
		<layer id="152" name="36413645_const" type="Const" version="opset1">
			<data offset="210620" size="4" shape="" element_type="f32"/>
			<output>
				<port id="1" precision="FP32"/>
			</output>
		</layer>
		<layer id="153" name="conv2d_8/Conv2D/fq_input_0" type="FakeQuantize" version="opset1">
			<data levels="256"/>
			<input>
				<port id="0">
					<dim>1</dim>
					<dim>64</dim>
					<dim>104</dim>
					<dim>104</dim>
				</port>
				<port id="1"/>
				<port id="2"/>
				<port id="3"/>
				<port id="4"/>
			</input>
			<output>
				<port id="5" precision="FP32">
					<dim>1</dim>
					<dim>64</dim>
					<dim>104</dim>
					<dim>104</dim>
				</port>
			</output>
		</layer>
		<layer id="154" name="conv2d_8/Conv2D/fq_weights_1/Convert_to_float/Cast_09412_const" type="Const" version="opset1">
			<data offset="210624" size="73728" shape="128,64,3,3" element_type="u8"/>
			<output>
				<port id="1" precision="U8">
					<dim>128</dim>
					<dim>64</dim>
					<dim>3</dim>
					<dim>3</dim>
				</port>
			</output>
		</layer>
		<layer id="155" name="conv2d_8/Conv2D/fq_weights_1/Convert_to_float" type="Convert" version="opset1">
			<data destination_type="f32"/>
			<input>
				<port id="0">
					<dim>128</dim>
					<dim>64</dim>
					<dim>3</dim>
					<dim>3</dim>
				</port>
			</input>
			<output>
				<port id="1" precision="FP32">
					<dim>128</dim>
					<dim>64</dim>
					<dim>3</dim>
					<dim>3</dim>
				</port>
			</output>
		</layer>
		<layer id="156" name="conv2d_8/Conv2D/fq_weights_1/Copy/out_low7712_const" type="Const" version="opset1">
			<data offset="0" size="4" shape="1" element_type="f32"/>
			<output>
				<port id="1" precision="FP32">
					<dim>1</dim>
				</port>
			</output>
		</layer>
		<layer id="157" name="conv2d_8/Conv2D/fq_weights_1/Copy/out_high7713_const" type="Const" version="opset1">
			<data offset="872" size="4" shape="1" element_type="f32"/>
			<output>
				<port id="1" precision="FP32">
					<dim>1</dim>
				</port>
			</output>
		</layer>
		<layer id="158" name="36503654_const" type="Const" version="opset1">
			<data offset="284352" size="512" shape="128,1,1,1" element_type="f32"/>
			<output>
				<port id="1" precision="FP32">
					<dim>128</dim>
					<dim>1</dim>
					<dim>1</dim>
					<dim>1</dim>
				</port>
			</output>
		</layer>
		<layer id="159" name="36513655_const" type="Const" version="opset1">
			<data offset="284864" size="512" shape="128,1,1,1" element_type="f32"/>
			<output>
				<port id="1" precision="FP32">
					<dim>128</dim>
					<dim>1</dim>
					<dim>1</dim>
					<dim>1</dim>
				</port>
			</output>
		</layer>
		<layer id="160" name="conv2d_8/Conv2D/fq_weights_1" type="FakeQuantize" version="opset1">
			<data levels="255"/>
			<input>
				<port id="0">
					<dim>128</dim>
					<dim>64</dim>
					<dim>3</dim>
					<dim>3</dim>
				</port>
				<port id="1">
					<dim>1</dim>
				</port>
				<port id="2">
					<dim>1</dim>
				</port>
				<port id="3">
					<dim>128</dim>
					<dim>1</dim>
					<dim>1</dim>
					<dim>1</dim>
				</port>
				<port id="4">
					<dim>128</dim>
					<dim>1</dim>
					<dim>1</dim>
					<dim>1</dim>
				</port>
			</input>
			<output>
				<port id="5" precision="FP32">
					<dim>128</dim>
					<dim>64</dim>
					<dim>3</dim>
					<dim>3</dim>
				</port>
			</output>
		</layer>
		<layer id="161" name="conv2d_8/Conv2D" type="Convolution" version="opset1">
			<data auto_pad="same_upper" strides="1,1" dilations="1,1" pads_begin="0,0" pads_end="0,0" output_padding="0,0"/>
			<input>
				<port id="0">
					<dim>1</dim>
					<dim>64</dim>
					<dim>104</dim>
					<dim>104</dim>
				</port>
				<port id="1">
					<dim>128</dim>
					<dim>64</dim>
					<dim>3</dim>
					<dim>3</dim>
				</port>
			</input>
			<output>
				<port id="2" precision="FP32">
					<dim>1</dim>
					<dim>128</dim>
					<dim>104</dim>
					<dim>104</dim>
				</port>
			</output>
		</layer>
		<layer id="162" name="data_add_134531345814065/EltwiseUnsqueeze14263_const548_const" type="Const" version="opset1">
			<data offset="285376" size="512" shape="1,128,1,1" element_type="f32"/>
			<output>
				<port id="1" precision="FP32">
					<dim>1</dim>
					<dim>128</dim>
					<dim>1</dim>
					<dim>1</dim>
				</port>
			</output>
		</layer>
		<layer id="163" name="batch_normalization_8/FusedBatchNormV3/variance/Fused_Add_" type="Add" version="opset1">
			<input>
				<port id="0">
					<dim>1</dim>
					<dim>128</dim>
					<dim>104</dim>
					<dim>104</dim>
				</port>
				<port id="1">
					<dim>1</dim>
					<dim>128</dim>
					<dim>1</dim>
					<dim>1</dim>
				</port>
			</input>
			<output>
				<port id="2" precision="FP32">
					<dim>1</dim>
					<dim>128</dim>
					<dim>104</dim>
					<dim>104</dim>
				</port>
			</output>
		</layer>
		<layer id="164" name="leaky_re_lu_8/LeakyRelu/Cast_19154_const" type="Const" version="opset1">
			<data offset="1260" size="4" shape="1" element_type="f32"/>
			<output>
				<port id="1" precision="FP32">
					<dim>1</dim>
				</port>
			</output>
		</layer>
		<layer id="165" name="leaky_re_lu_8/LeakyRelu" type="PReLU" version="opset1">
			<input>
				<port id="0">
					<dim>1</dim>
					<dim>128</dim>
					<dim>104</dim>
					<dim>104</dim>
				</port>
				<port id="1">
					<dim>1</dim>
				</port>
			</input>
			<output>
				<port id="2" precision="FP32">
					<dim>1</dim>
					<dim>128</dim>
					<dim>104</dim>
					<dim>104</dim>
				</port>
			</output>
		</layer>
		<layer id="166" name="23682372_const" type="Const" version="opset1">
			<data offset="285888" size="4" shape="" element_type="f32"/>
			<output>
				<port id="1" precision="FP32"/>
			</output>
		</layer>
		<layer id="167" name="23692373_const" type="Const" version="opset1">
			<data offset="285892" size="4" shape="" element_type="f32"/>
			<output>
				<port id="1" precision="FP32"/>
			</output>
		</layer>
		<layer id="168" name="23702374_const" type="Const" version="opset1">
			<data offset="285888" size="4" shape="" element_type="f32"/>
			<output>
				<port id="1" precision="FP32"/>
			</output>
		</layer>
		<layer id="169" name="23712375_const" type="Const" version="opset1">
			<data offset="285892" size="4" shape="" element_type="f32"/>
			<output>
				<port id="1" precision="FP32"/>
			</output>
		</layer>
		<layer id="170" name="add_2/add/fq_input_1" type="FakeQuantize" version="opset1">
			<data levels="256"/>
			<input>
				<port id="0">
					<dim>1</dim>
					<dim>128</dim>
					<dim>104</dim>
					<dim>104</dim>
				</port>
				<port id="1"/>
				<port id="2"/>
				<port id="3"/>
				<port id="4"/>
			</input>
			<output>
				<port id="5" precision="FP32">
					<dim>1</dim>
					<dim>128</dim>
					<dim>104</dim>
					<dim>104</dim>
				</port>
			</output>
		</layer>
		<layer id="171" name="add_2/add" type="Add" version="opset1">
			<input>
				<port id="0">
					<dim>1</dim>
					<dim>128</dim>
					<dim>104</dim>
					<dim>104</dim>
				</port>
				<port id="1">
					<dim>1</dim>
					<dim>128</dim>
					<dim>104</dim>
					<dim>104</dim>
				</port>
			</input>
			<output>
				<port id="2" precision="FP32">
					<dim>1</dim>
					<dim>128</dim>
					<dim>104</dim>
					<dim>104</dim>
				</port>
			</output>
		</layer>
		<layer id="172" name="21582162_const" type="Const" version="opset1">
			<data offset="285896" size="4" shape="" element_type="f32"/>
			<output>
				<port id="1" precision="FP32"/>
			</output>
		</layer>
		<layer id="173" name="21592163_const" type="Const" version="opset1">
			<data offset="285900" size="4" shape="" element_type="f32"/>
			<output>
				<port id="1" precision="FP32"/>
			</output>
		</layer>
		<layer id="174" name="21602164_const" type="Const" version="opset1">
			<data offset="285896" size="4" shape="" element_type="f32"/>
			<output>
				<port id="1" precision="FP32"/>
			</output>
		</layer>
		<layer id="175" name="21612165_const" type="Const" version="opset1">
			<data offset="285900" size="4" shape="" element_type="f32"/>
			<output>
				<port id="1" precision="FP32"/>
			</output>
		</layer>
		<layer id="176" name="conv2d_9/Conv2D/fq_input_0" type="FakeQuantize" version="opset1">
			<data levels="256"/>
			<input>
				<port id="0">
					<dim>1</dim>
					<dim>128</dim>
					<dim>104</dim>
					<dim>104</dim>
				</port>
				<port id="1"/>
				<port id="2"/>
				<port id="3"/>
				<port id="4"/>
			</input>
			<output>
				<port id="5" precision="FP32">
					<dim>1</dim>
					<dim>128</dim>
					<dim>104</dim>
					<dim>104</dim>
				</port>
			</output>
		</layer>
		<layer id="177" name="conv2d_9/Conv2D/fq_weights_1/Convert_to_float/Cast_09240_const" type="Const" version="opset1">
			<data offset="285904" size="294912" shape="256,128,3,3" element_type="u8"/>
			<output>
				<port id="1" precision="U8">
					<dim>256</dim>
					<dim>128</dim>
					<dim>3</dim>
					<dim>3</dim>
				</port>
			</output>
		</layer>
		<layer id="178" name="conv2d_9/Conv2D/fq_weights_1/Convert_to_float" type="Convert" version="opset1">
			<data destination_type="f32"/>
			<input>
				<port id="0">
					<dim>256</dim>
					<dim>128</dim>
					<dim>3</dim>
					<dim>3</dim>
				</port>
			</input>
			<output>
				<port id="1" precision="FP32">
					<dim>256</dim>
					<dim>128</dim>
					<dim>3</dim>
					<dim>3</dim>
				</port>
			</output>
		</layer>
		<layer id="179" name="conv2d_9/Conv2D/fq_weights_1/Copy/out_low8080_const" type="Const" version="opset1">
			<data offset="0" size="4" shape="1" element_type="f32"/>
			<output>
				<port id="1" precision="FP32">
					<dim>1</dim>
				</port>
			</output>
		</layer>
		<layer id="180" name="conv2d_9/Conv2D/fq_weights_1/Copy/out_high8081_const" type="Const" version="opset1">
			<data offset="872" size="4" shape="1" element_type="f32"/>
			<output>
				<port id="1" precision="FP32">
					<dim>1</dim>
				</port>
			</output>
		</layer>
		<layer id="181" name="21702174_const" type="Const" version="opset1">
			<data offset="580816" size="1024" shape="256,1,1,1" element_type="f32"/>
			<output>
				<port id="1" precision="FP32">
					<dim>256</dim>
					<dim>1</dim>
					<dim>1</dim>
					<dim>1</dim>
				</port>
			</output>
		</layer>
		<layer id="182" name="21712175_const" type="Const" version="opset1">
			<data offset="581840" size="1024" shape="256,1,1,1" element_type="f32"/>
			<output>
				<port id="1" precision="FP32">
					<dim>256</dim>
					<dim>1</dim>
					<dim>1</dim>
					<dim>1</dim>
				</port>
			</output>
		</layer>
		<layer id="183" name="conv2d_9/Conv2D/fq_weights_1" type="FakeQuantize" version="opset1">
			<data levels="255"/>
			<input>
				<port id="0">
					<dim>256</dim>
					<dim>128</dim>
					<dim>3</dim>
					<dim>3</dim>
				</port>
				<port id="1">
					<dim>1</dim>
				</port>
				<port id="2">
					<dim>1</dim>
				</port>
				<port id="3">
					<dim>256</dim>
					<dim>1</dim>
					<dim>1</dim>
					<dim>1</dim>
				</port>
				<port id="4">
					<dim>256</dim>
					<dim>1</dim>
					<dim>1</dim>
					<dim>1</dim>
				</port>
			</input>
			<output>
				<port id="5" precision="FP32">
					<dim>256</dim>
					<dim>128</dim>
					<dim>3</dim>
					<dim>3</dim>
				</port>
			</output>
		</layer>
		<layer id="184" name="conv2d_9/Conv2D" type="Convolution" version="opset1">
			<data strides="2,2" dilations="1,1" pads_begin="1,1" pads_end="0,0" output_padding="0,0"/>
			<input>
				<port id="0">
					<dim>1</dim>
					<dim>128</dim>
					<dim>104</dim>
					<dim>104</dim>
				</port>
				<port id="1">
					<dim>256</dim>
					<dim>128</dim>
					<dim>3</dim>
					<dim>3</dim>
				</port>
			</input>
			<output>
				<port id="2" precision="FP32">
					<dim>1</dim>
					<dim>256</dim>
					<dim>52</dim>
					<dim>52</dim>
				</port>
			</output>
		</layer>
		<layer id="185" name="data_add_134611346614067/EltwiseUnsqueeze14271_const555_const" type="Const" version="opset1">
			<data offset="582864" size="1024" shape="1,256,1,1" element_type="f32"/>
			<output>
				<port id="1" precision="FP32">
					<dim>1</dim>
					<dim>256</dim>
					<dim>1</dim>
					<dim>1</dim>
				</port>
			</output>
		</layer>
		<layer id="186" name="batch_normalization_9/FusedBatchNormV3/variance/Fused_Add_" type="Add" version="opset1">
			<input>
				<port id="0">
					<dim>1</dim>
					<dim>256</dim>
					<dim>52</dim>
					<dim>52</dim>
				</port>
				<port id="1">
					<dim>1</dim>
					<dim>256</dim>
					<dim>1</dim>
					<dim>1</dim>
				</port>
			</input>
			<output>
				<port id="2" precision="FP32">
					<dim>1</dim>
					<dim>256</dim>
					<dim>52</dim>
					<dim>52</dim>
				</port>
			</output>
		</layer>
		<layer id="187" name="leaky_re_lu_9/LeakyRelu/Cast_19156_const" type="Const" version="opset1">
			<data offset="1260" size="4" shape="1" element_type="f32"/>
			<output>
				<port id="1" precision="FP32">
					<dim>1</dim>
				</port>
			</output>
		</layer>
		<layer id="188" name="leaky_re_lu_9/LeakyRelu" type="PReLU" version="opset1">
			<input>
				<port id="0">
					<dim>1</dim>
					<dim>256</dim>
					<dim>52</dim>
					<dim>52</dim>
				</port>
				<port id="1">
					<dim>1</dim>
				</port>
			</input>
			<output>
				<port id="2" precision="FP32">
					<dim>1</dim>
					<dim>256</dim>
					<dim>52</dim>
					<dim>52</dim>
				</port>
			</output>
		</layer>
		<layer id="189" name="22782282_const" type="Const" version="opset1">
			<data offset="583888" size="4" shape="" element_type="f32"/>
			<output>
				<port id="1" precision="FP32"/>
			</output>
		</layer>
		<layer id="190" name="22792283_const" type="Const" version="opset1">
			<data offset="583892" size="4" shape="" element_type="f32"/>
			<output>
				<port id="1" precision="FP32"/>
			</output>
		</layer>
		<layer id="191" name="22802284_const" type="Const" version="opset1">
			<data offset="583888" size="4" shape="" element_type="f32"/>
			<output>
				<port id="1" precision="FP32"/>
			</output>
		</layer>
		<layer id="192" name="22812285_const" type="Const" version="opset1">
			<data offset="583892" size="4" shape="" element_type="f32"/>
			<output>
				<port id="1" precision="FP32"/>
			</output>
		</layer>
		<layer id="193" name="add_3/add/fq_input_0" type="FakeQuantize" version="opset1">
			<data levels="256"/>
			<input>
				<port id="0">
					<dim>1</dim>
					<dim>256</dim>
					<dim>52</dim>
					<dim>52</dim>
				</port>
				<port id="1"/>
				<port id="2"/>
				<port id="3"/>
				<port id="4"/>
			</input>
			<output>
				<port id="5" precision="FP32">
					<dim>1</dim>
					<dim>256</dim>
					<dim>52</dim>
					<dim>52</dim>
				</port>
			</output>
		</layer>
		<layer id="194" name="conv2d_10/Conv2D/fq_weights_1/Convert_to_float/Cast_09300_const" type="Const" version="opset1">
			<data offset="583896" size="32768" shape="128,256,1,1" element_type="u8"/>
			<output>
				<port id="1" precision="U8">
					<dim>128</dim>
					<dim>256</dim>
					<dim>1</dim>
					<dim>1</dim>
				</port>
			</output>
		</layer>
		<layer id="195" name="conv2d_10/Conv2D/fq_weights_1/Convert_to_float" type="Convert" version="opset1">
			<data destination_type="f32"/>
			<input>
				<port id="0">
					<dim>128</dim>
					<dim>256</dim>
					<dim>1</dim>
					<dim>1</dim>
				</port>
			</input>
			<output>
				<port id="1" precision="FP32">
					<dim>128</dim>
					<dim>256</dim>
					<dim>1</dim>
					<dim>1</dim>
				</port>
			</output>
		</layer>
		<layer id="196" name="conv2d_10/Conv2D/fq_weights_1/Copy/out_low8112_const" type="Const" version="opset1">
			<data offset="0" size="4" shape="1" element_type="f32"/>
			<output>
				<port id="1" precision="FP32">
					<dim>1</dim>
				</port>
			</output>
		</layer>
		<layer id="197" name="conv2d_10/Conv2D/fq_weights_1/Copy/out_high8113_const" type="Const" version="opset1">
			<data offset="872" size="4" shape="1" element_type="f32"/>
			<output>
				<port id="1" precision="FP32">
					<dim>1</dim>
				</port>
			</output>
		</layer>
		<layer id="198" name="35103514_const" type="Const" version="opset1">
			<data offset="616664" size="512" shape="128,1,1,1" element_type="f32"/>
			<output>
				<port id="1" precision="FP32">
					<dim>128</dim>
					<dim>1</dim>
					<dim>1</dim>
					<dim>1</dim>
				</port>
			</output>
		</layer>
		<layer id="199" name="35113515_const" type="Const" version="opset1">
			<data offset="617176" size="512" shape="128,1,1,1" element_type="f32"/>
			<output>
				<port id="1" precision="FP32">
					<dim>128</dim>
					<dim>1</dim>
					<dim>1</dim>
					<dim>1</dim>
				</port>
			</output>
		</layer>
		<layer id="200" name="conv2d_10/Conv2D/fq_weights_1" type="FakeQuantize" version="opset1">
			<data levels="255"/>
			<input>
				<port id="0">
					<dim>128</dim>
					<dim>256</dim>
					<dim>1</dim>
					<dim>1</dim>
				</port>
				<port id="1">
					<dim>1</dim>
				</port>
				<port id="2">
					<dim>1</dim>
				</port>
				<port id="3">
					<dim>128</dim>
					<dim>1</dim>
					<dim>1</dim>
					<dim>1</dim>
				</port>
				<port id="4">
					<dim>128</dim>
					<dim>1</dim>
					<dim>1</dim>
					<dim>1</dim>
				</port>
			</input>
			<output>
				<port id="5" precision="FP32">
					<dim>128</dim>
					<dim>256</dim>
					<dim>1</dim>
					<dim>1</dim>
				</port>
			</output>
		</layer>
		<layer id="201" name="conv2d_10/Conv2D" type="Convolution" version="opset1">
			<data auto_pad="same_upper" strides="1,1" dilations="1,1" pads_begin="0,0" pads_end="0,0" output_padding="0,0"/>
			<input>
				<port id="0">
					<dim>1</dim>
					<dim>256</dim>
					<dim>52</dim>
					<dim>52</dim>
				</port>
				<port id="1">
					<dim>128</dim>
					<dim>256</dim>
					<dim>1</dim>
					<dim>1</dim>
				</port>
			</input>
			<output>
				<port id="2" precision="FP32">
					<dim>1</dim>
					<dim>128</dim>
					<dim>52</dim>
					<dim>52</dim>
				</port>
			</output>
		</layer>
		<layer id="202" name="data_add_134691347414069/EltwiseUnsqueeze14279_const561_const" type="Const" version="opset1">
			<data offset="617688" size="512" shape="1,128,1,1" element_type="f32"/>
			<output>
				<port id="1" precision="FP32">
					<dim>1</dim>
					<dim>128</dim>
					<dim>1</dim>
					<dim>1</dim>
				</port>
			</output>
		</layer>
		<layer id="203" name="batch_normalization_10/FusedBatchNormV3/variance/Fused_Add_" type="Add" version="opset1">
			<input>
				<port id="0">
					<dim>1</dim>
					<dim>128</dim>
					<dim>52</dim>
					<dim>52</dim>
				</port>
				<port id="1">
					<dim>1</dim>
					<dim>128</dim>
					<dim>1</dim>
					<dim>1</dim>
				</port>
			</input>
			<output>
				<port id="2" precision="FP32">
					<dim>1</dim>
					<dim>128</dim>
					<dim>52</dim>
					<dim>52</dim>
				</port>
			</output>
		</layer>
		<layer id="204" name="leaky_re_lu_10/LeakyRelu/Cast_19416_const" type="Const" version="opset1">
			<data offset="1260" size="4" shape="1" element_type="f32"/>
			<output>
				<port id="1" precision="FP32">
					<dim>1</dim>
				</port>
			</output>
		</layer>
		<layer id="205" name="leaky_re_lu_10/LeakyRelu" type="PReLU" version="opset1">
			<input>
				<port id="0">
					<dim>1</dim>
					<dim>128</dim>
					<dim>52</dim>
					<dim>52</dim>
				</port>
				<port id="1">
					<dim>1</dim>
				</port>
			</input>
			<output>
				<port id="2" precision="FP32">
					<dim>1</dim>
					<dim>128</dim>
					<dim>52</dim>
					<dim>52</dim>
				</port>
			</output>
		</layer>
		<layer id="206" name="25782582_const" type="Const" version="opset1">
			<data offset="618200" size="4" shape="" element_type="f32"/>
			<output>
				<port id="1" precision="FP32"/>
			</output>
		</layer>
		<layer id="207" name="25792583_const" type="Const" version="opset1">
			<data offset="618204" size="4" shape="" element_type="f32"/>
			<output>
				<port id="1" precision="FP32"/>
			</output>
		</layer>
		<layer id="208" name="25802584_const" type="Const" version="opset1">
			<data offset="618200" size="4" shape="" element_type="f32"/>
			<output>
				<port id="1" precision="FP32"/>
			</output>
		</layer>
		<layer id="209" name="25812585_const" type="Const" version="opset1">
			<data offset="618204" size="4" shape="" element_type="f32"/>
			<output>
				<port id="1" precision="FP32"/>
			</output>
		</layer>
		<layer id="210" name="conv2d_11/Conv2D/fq_input_0" type="FakeQuantize" version="opset1">
			<data levels="256"/>
			<input>
				<port id="0">
					<dim>1</dim>
					<dim>128</dim>
					<dim>52</dim>
					<dim>52</dim>
				</port>
				<port id="1"/>
				<port id="2"/>
				<port id="3"/>
				<port id="4"/>
			</input>
			<output>
				<port id="5" precision="FP32">
					<dim>1</dim>
					<dim>128</dim>
					<dim>52</dim>
					<dim>52</dim>
				</port>
			</output>
		</layer>
		<layer id="211" name="conv2d_11/Conv2D/fq_weights_1/Convert_to_float/Cast_09426_const" type="Const" version="opset1">
			<data offset="618208" size="294912" shape="256,128,3,3" element_type="u8"/>
			<output>
				<port id="1" precision="U8">
					<dim>256</dim>
					<dim>128</dim>
					<dim>3</dim>
					<dim>3</dim>
				</port>
			</output>
		</layer>
		<layer id="212" name="conv2d_11/Conv2D/fq_weights_1/Convert_to_float" type="Convert" version="opset1">
			<data destination_type="f32"/>
			<input>
				<port id="0">
					<dim>256</dim>
					<dim>128</dim>
					<dim>3</dim>
					<dim>3</dim>
				</port>
			</input>
			<output>
				<port id="1" precision="FP32">
					<dim>256</dim>
					<dim>128</dim>
					<dim>3</dim>
					<dim>3</dim>
				</port>
			</output>
		</layer>
		<layer id="213" name="conv2d_11/Conv2D/fq_weights_1/Copy/out_low7848_const" type="Const" version="opset1">
			<data offset="0" size="4" shape="1" element_type="f32"/>
			<output>
				<port id="1" precision="FP32">
					<dim>1</dim>
				</port>
			</output>
		</layer>
		<layer id="214" name="conv2d_11/Conv2D/fq_weights_1/Copy/out_high7849_const" type="Const" version="opset1">
			<data offset="872" size="4" shape="1" element_type="f32"/>
			<output>
				<port id="1" precision="FP32">
					<dim>1</dim>
				</port>
			</output>
		</layer>
		<layer id="215" name="25902594_const" type="Const" version="opset1">
			<data offset="913120" size="1024" shape="256,1,1,1" element_type="f32"/>
			<output>
				<port id="1" precision="FP32">
					<dim>256</dim>
					<dim>1</dim>
					<dim>1</dim>
					<dim>1</dim>
				</port>
			</output>
		</layer>
		<layer id="216" name="25912595_const" type="Const" version="opset1">
			<data offset="914144" size="1024" shape="256,1,1,1" element_type="f32"/>
			<output>
				<port id="1" precision="FP32">
					<dim>256</dim>
					<dim>1</dim>
					<dim>1</dim>
					<dim>1</dim>
				</port>
			</output>
		</layer>
		<layer id="217" name="conv2d_11/Conv2D/fq_weights_1" type="FakeQuantize" version="opset1">
			<data levels="255"/>
			<input>
				<port id="0">
					<dim>256</dim>
					<dim>128</dim>
					<dim>3</dim>
					<dim>3</dim>
				</port>
				<port id="1">
					<dim>1</dim>
				</port>
				<port id="2">
					<dim>1</dim>
				</port>
				<port id="3">
					<dim>256</dim>
					<dim>1</dim>
					<dim>1</dim>
					<dim>1</dim>
				</port>
				<port id="4">
					<dim>256</dim>
					<dim>1</dim>
					<dim>1</dim>
					<dim>1</dim>
				</port>
			</input>
			<output>
				<port id="5" precision="FP32">
					<dim>256</dim>
					<dim>128</dim>
					<dim>3</dim>
					<dim>3</dim>
				</port>
			</output>
		</layer>
		<layer id="218" name="conv2d_11/Conv2D" type="Convolution" version="opset1">
			<data auto_pad="same_upper" strides="1,1" dilations="1,1" pads_begin="0,0" pads_end="0,0" output_padding="0,0"/>
			<input>
				<port id="0">
					<dim>1</dim>
					<dim>128</dim>
					<dim>52</dim>
					<dim>52</dim>
				</port>
				<port id="1">
					<dim>256</dim>
					<dim>128</dim>
					<dim>3</dim>
					<dim>3</dim>
				</port>
			</input>
			<output>
				<port id="2" precision="FP32">
					<dim>1</dim>
					<dim>256</dim>
					<dim>52</dim>
					<dim>52</dim>
				</port>
			</output>
		</layer>
		<layer id="219" name="data_add_134771348214071/EltwiseUnsqueeze14287_const567_const" type="Const" version="opset1">
			<data offset="915168" size="1024" shape="1,256,1,1" element_type="f32"/>
			<output>
				<port id="1" precision="FP32">
					<dim>1</dim>
					<dim>256</dim>
					<dim>1</dim>
					<dim>1</dim>
				</port>
			</output>
		</layer>
		<layer id="220" name="batch_normalization_11/FusedBatchNormV3/variance/Fused_Add_" type="Add" version="opset1">
			<input>
				<port id="0">
					<dim>1</dim>
					<dim>256</dim>
					<dim>52</dim>
					<dim>52</dim>
				</port>
				<port id="1">
					<dim>1</dim>
					<dim>256</dim>
					<dim>1</dim>
					<dim>1</dim>
				</port>
			</input>
			<output>
				<port id="2" precision="FP32">
					<dim>1</dim>
					<dim>256</dim>
					<dim>52</dim>
					<dim>52</dim>
				</port>
			</output>
		</layer>
		<layer id="221" name="leaky_re_lu_11/LeakyRelu/Cast_19312_const" type="Const" version="opset1">
			<data offset="1260" size="4" shape="1" element_type="f32"/>
			<output>
				<port id="1" precision="FP32">
					<dim>1</dim>
				</port>
			</output>
		</layer>
		<layer id="222" name="leaky_re_lu_11/LeakyRelu" type="PReLU" version="opset1">
			<input>
				<port id="0">
					<dim>1</dim>
					<dim>256</dim>
					<dim>52</dim>
					<dim>52</dim>
				</port>
				<port id="1">
					<dim>1</dim>
				</port>
			</input>
			<output>
				<port id="2" precision="FP32">
					<dim>1</dim>
					<dim>256</dim>
					<dim>52</dim>
					<dim>52</dim>
				</port>
			</output>
		</layer>
		<layer id="223" name="22882292_const" type="Const" version="opset1">
			<data offset="916192" size="4" shape="" element_type="f32"/>
			<output>
				<port id="1" precision="FP32"/>
			</output>
		</layer>
		<layer id="224" name="22892293_const" type="Const" version="opset1">
			<data offset="916196" size="4" shape="" element_type="f32"/>
			<output>
				<port id="1" precision="FP32"/>
			</output>
		</layer>
		<layer id="225" name="22902294_const" type="Const" version="opset1">
			<data offset="916192" size="4" shape="" element_type="f32"/>
			<output>
				<port id="1" precision="FP32"/>
			</output>
		</layer>
		<layer id="226" name="22912295_const" type="Const" version="opset1">
			<data offset="916196" size="4" shape="" element_type="f32"/>
			<output>
				<port id="1" precision="FP32"/>
			</output>
		</layer>
		<layer id="227" name="add_3/add/fq_input_1" type="FakeQuantize" version="opset1">
			<data levels="256"/>
			<input>
				<port id="0">
					<dim>1</dim>
					<dim>256</dim>
					<dim>52</dim>
					<dim>52</dim>
				</port>
				<port id="1"/>
				<port id="2"/>
				<port id="3"/>
				<port id="4"/>
			</input>
			<output>
				<port id="5" precision="FP32">
					<dim>1</dim>
					<dim>256</dim>
					<dim>52</dim>
					<dim>52</dim>
				</port>
			</output>
		</layer>
		<layer id="228" name="add_3/add" type="Add" version="opset1">
			<input>
				<port id="0">
					<dim>1</dim>
					<dim>256</dim>
					<dim>52</dim>
					<dim>52</dim>
				</port>
				<port id="1">
					<dim>1</dim>
					<dim>256</dim>
					<dim>52</dim>
					<dim>52</dim>
				</port>
			</input>
			<output>
				<port id="2" precision="FP32">
					<dim>1</dim>
					<dim>256</dim>
					<dim>52</dim>
					<dim>52</dim>
				</port>
			</output>
		</layer>
		<layer id="229" name="21982202_const" type="Const" version="opset1">
			<data offset="916200" size="4" shape="" element_type="f32"/>
			<output>
				<port id="1" precision="FP32"/>
			</output>
		</layer>
		<layer id="230" name="21992203_const" type="Const" version="opset1">
			<data offset="916204" size="4" shape="" element_type="f32"/>
			<output>
				<port id="1" precision="FP32"/>
			</output>
		</layer>
		<layer id="231" name="22002204_const" type="Const" version="opset1">
			<data offset="916200" size="4" shape="" element_type="f32"/>
			<output>
				<port id="1" precision="FP32"/>
			</output>
		</layer>
		<layer id="232" name="22012205_const" type="Const" version="opset1">
			<data offset="916204" size="4" shape="" element_type="f32"/>
			<output>
				<port id="1" precision="FP32"/>
			</output>
		</layer>
		<layer id="233" name="add_4/add/fq_input_0" type="FakeQuantize" version="opset1">
			<data levels="256"/>
			<input>
				<port id="0">
					<dim>1</dim>
					<dim>256</dim>
					<dim>52</dim>
					<dim>52</dim>
				</port>
				<port id="1"/>
				<port id="2"/>
				<port id="3"/>
				<port id="4"/>
			</input>
			<output>
				<port id="5" precision="FP32">
					<dim>1</dim>
					<dim>256</dim>
					<dim>52</dim>
					<dim>52</dim>
				</port>
			</output>
		</layer>
		<layer id="234" name="conv2d_12/Conv2D/fq_weights_1/Convert_to_float/Cast_09292_const" type="Const" version="opset1">
			<data offset="916208" size="32768" shape="128,256,1,1" element_type="u8"/>
			<output>
				<port id="1" precision="U8">
					<dim>128</dim>
					<dim>256</dim>
					<dim>1</dim>
					<dim>1</dim>
				</port>
			</output>
		</layer>
		<layer id="235" name="conv2d_12/Conv2D/fq_weights_1/Convert_to_float" type="Convert" version="opset1">
			<data destination_type="f32"/>
			<input>
				<port id="0">
					<dim>128</dim>
					<dim>256</dim>
					<dim>1</dim>
					<dim>1</dim>
				</port>
			</input>
			<output>
				<port id="1" precision="FP32">
					<dim>128</dim>
					<dim>256</dim>
					<dim>1</dim>
					<dim>1</dim>
				</port>
			</output>
		</layer>
		<layer id="236" name="conv2d_12/Conv2D/fq_weights_1/Copy/out_low8160_const" type="Const" version="opset1">
			<data offset="0" size="4" shape="1" element_type="f32"/>
			<output>
				<port id="1" precision="FP32">
					<dim>1</dim>
				</port>
			</output>
		</layer>
		<layer id="237" name="conv2d_12/Conv2D/fq_weights_1/Copy/out_high8161_const" type="Const" version="opset1">
			<data offset="872" size="4" shape="1" element_type="f32"/>
			<output>
				<port id="1" precision="FP32">
					<dim>1</dim>
				</port>
			</output>
		</layer>
		<layer id="238" name="33703374_const" type="Const" version="opset1">
			<data offset="948976" size="512" shape="128,1,1,1" element_type="f32"/>
			<output>
				<port id="1" precision="FP32">
					<dim>128</dim>
					<dim>1</dim>
					<dim>1</dim>
					<dim>1</dim>
				</port>
			</output>
		</layer>
		<layer id="239" name="33713375_const" type="Const" version="opset1">
			<data offset="949488" size="512" shape="128,1,1,1" element_type="f32"/>
			<output>
				<port id="1" precision="FP32">
					<dim>128</dim>
					<dim>1</dim>
					<dim>1</dim>
					<dim>1</dim>
				</port>
			</output>
		</layer>
		<layer id="240" name="conv2d_12/Conv2D/fq_weights_1" type="FakeQuantize" version="opset1">
			<data levels="255"/>
			<input>
				<port id="0">
					<dim>128</dim>
					<dim>256</dim>
					<dim>1</dim>
					<dim>1</dim>
				</port>
				<port id="1">
					<dim>1</dim>
				</port>
				<port id="2">
					<dim>1</dim>
				</port>
				<port id="3">
					<dim>128</dim>
					<dim>1</dim>
					<dim>1</dim>
					<dim>1</dim>
				</port>
				<port id="4">
					<dim>128</dim>
					<dim>1</dim>
					<dim>1</dim>
					<dim>1</dim>
				</port>
			</input>
			<output>
				<port id="5" precision="FP32">
					<dim>128</dim>
					<dim>256</dim>
					<dim>1</dim>
					<dim>1</dim>
				</port>
			</output>
		</layer>
		<layer id="241" name="conv2d_12/Conv2D" type="Convolution" version="opset1">
			<data auto_pad="same_upper" strides="1,1" dilations="1,1" pads_begin="0,0" pads_end="0,0" output_padding="0,0"/>
			<input>
				<port id="0">
					<dim>1</dim>
					<dim>256</dim>
					<dim>52</dim>
					<dim>52</dim>
				</port>
				<port id="1">
					<dim>128</dim>
					<dim>256</dim>
					<dim>1</dim>
					<dim>1</dim>
				</port>
			</input>
			<output>
				<port id="2" precision="FP32">
					<dim>1</dim>
					<dim>128</dim>
					<dim>52</dim>
					<dim>52</dim>
				</port>
			</output>
		</layer>
		<layer id="242" name="data_add_134851349014073/EltwiseUnsqueeze14295_const574_const" type="Const" version="opset1">
			<data offset="950000" size="512" shape="1,128,1,1" element_type="f32"/>
			<output>
				<port id="1" precision="FP32">
					<dim>1</dim>
					<dim>128</dim>
					<dim>1</dim>
					<dim>1</dim>
				</port>
			</output>
		</layer>
		<layer id="243" name="batch_normalization_12/FusedBatchNormV3/variance/Fused_Add_" type="Add" version="opset1">
			<input>
				<port id="0">
					<dim>1</dim>
					<dim>128</dim>
					<dim>52</dim>
					<dim>52</dim>
				</port>
				<port id="1">
					<dim>1</dim>
					<dim>128</dim>
					<dim>1</dim>
					<dim>1</dim>
				</port>
			</input>
			<output>
				<port id="2" precision="FP32">
					<dim>1</dim>
					<dim>128</dim>
					<dim>52</dim>
					<dim>52</dim>
				</port>
			</output>
		</layer>
		<layer id="244" name="leaky_re_lu_12/LeakyRelu/Cast_19298_const" type="Const" version="opset1">
			<data offset="1260" size="4" shape="1" element_type="f32"/>
			<output>
				<port id="1" precision="FP32">
					<dim>1</dim>
				</port>
			</output>
		</layer>
		<layer id="245" name="leaky_re_lu_12/LeakyRelu" type="PReLU" version="opset1">
			<input>
				<port id="0">
					<dim>1</dim>
					<dim>128</dim>
					<dim>52</dim>
					<dim>52</dim>
				</port>
				<port id="1">
					<dim>1</dim>
				</port>
			</input>
			<output>
				<port id="2" precision="FP32">
					<dim>1</dim>
					<dim>128</dim>
					<dim>52</dim>
					<dim>52</dim>
				</port>
			</output>
		</layer>
		<layer id="246" name="27982802_const" type="Const" version="opset1">
			<data offset="950512" size="4" shape="" element_type="f32"/>
			<output>
				<port id="1" precision="FP32"/>
			</output>
		</layer>
		<layer id="247" name="27992803_const" type="Const" version="opset1">
			<data offset="950516" size="4" shape="" element_type="f32"/>
			<output>
				<port id="1" precision="FP32"/>
			</output>
		</layer>
		<layer id="248" name="28002804_const" type="Const" version="opset1">
			<data offset="950512" size="4" shape="" element_type="f32"/>
			<output>
				<port id="1" precision="FP32"/>
			</output>
		</layer>
		<layer id="249" name="28012805_const" type="Const" version="opset1">
			<data offset="950516" size="4" shape="" element_type="f32"/>
			<output>
				<port id="1" precision="FP32"/>
			</output>
		</layer>
		<layer id="250" name="conv2d_13/Conv2D/fq_input_0" type="FakeQuantize" version="opset1">
			<data levels="256"/>
			<input>
				<port id="0">
					<dim>1</dim>
					<dim>128</dim>
					<dim>52</dim>
					<dim>52</dim>
				</port>
				<port id="1"/>
				<port id="2"/>
				<port id="3"/>
				<port id="4"/>
			</input>
			<output>
				<port id="5" precision="FP32">
					<dim>1</dim>
					<dim>128</dim>
					<dim>52</dim>
					<dim>52</dim>
				</port>
			</output>
		</layer>
		<layer id="251" name="conv2d_13/Conv2D/fq_weights_1/Convert_to_float/Cast_09148_const" type="Const" version="opset1">
			<data offset="950520" size="294912" shape="256,128,3,3" element_type="u8"/>
			<output>
				<port id="1" precision="U8">
					<dim>256</dim>
					<dim>128</dim>
					<dim>3</dim>
					<dim>3</dim>
				</port>
			</output>
		</layer>
		<layer id="252" name="conv2d_13/Conv2D/fq_weights_1/Convert_to_float" type="Convert" version="opset1">
			<data destination_type="f32"/>
			<input>
				<port id="0">
					<dim>256</dim>
					<dim>128</dim>
					<dim>3</dim>
					<dim>3</dim>
				</port>
			</input>
			<output>
				<port id="1" precision="FP32">
					<dim>256</dim>
					<dim>128</dim>
					<dim>3</dim>
					<dim>3</dim>
				</port>
			</output>
		</layer>
		<layer id="253" name="conv2d_13/Conv2D/fq_weights_1/Copy/out_low7960_const" type="Const" version="opset1">
			<data offset="0" size="4" shape="1" element_type="f32"/>
			<output>
				<port id="1" precision="FP32">
					<dim>1</dim>
				</port>
			</output>
		</layer>
		<layer id="254" name="conv2d_13/Conv2D/fq_weights_1/Copy/out_high7961_const" type="Const" version="opset1">
			<data offset="872" size="4" shape="1" element_type="f32"/>
			<output>
				<port id="1" precision="FP32">
					<dim>1</dim>
				</port>
			</output>
		</layer>
		<layer id="255" name="28102814_const" type="Const" version="opset1">
			<data offset="1245432" size="1024" shape="256,1,1,1" element_type="f32"/>
			<output>
				<port id="1" precision="FP32">
					<dim>256</dim>
					<dim>1</dim>
					<dim>1</dim>
					<dim>1</dim>
				</port>
			</output>
		</layer>
		<layer id="256" name="28112815_const" type="Const" version="opset1">
			<data offset="1246456" size="1024" shape="256,1,1,1" element_type="f32"/>
			<output>
				<port id="1" precision="FP32">
					<dim>256</dim>
					<dim>1</dim>
					<dim>1</dim>
					<dim>1</dim>
				</port>
			</output>
		</layer>
		<layer id="257" name="conv2d_13/Conv2D/fq_weights_1" type="FakeQuantize" version="opset1">
			<data levels="255"/>
			<input>
				<port id="0">
					<dim>256</dim>
					<dim>128</dim>
					<dim>3</dim>
					<dim>3</dim>
				</port>
				<port id="1">
					<dim>1</dim>
				</port>
				<port id="2">
					<dim>1</dim>
				</port>
				<port id="3">
					<dim>256</dim>
					<dim>1</dim>
					<dim>1</dim>
					<dim>1</dim>
				</port>
				<port id="4">
					<dim>256</dim>
					<dim>1</dim>
					<dim>1</dim>
					<dim>1</dim>
				</port>
			</input>
			<output>
				<port id="5" precision="FP32">
					<dim>256</dim>
					<dim>128</dim>
					<dim>3</dim>
					<dim>3</dim>
				</port>
			</output>
		</layer>
		<layer id="258" name="conv2d_13/Conv2D" type="Convolution" version="opset1">
			<data auto_pad="same_upper" strides="1,1" dilations="1,1" pads_begin="0,0" pads_end="0,0" output_padding="0,0"/>
			<input>
				<port id="0">
					<dim>1</dim>
					<dim>128</dim>
					<dim>52</dim>
					<dim>52</dim>
				</port>
				<port id="1">
					<dim>256</dim>
					<dim>128</dim>
					<dim>3</dim>
					<dim>3</dim>
				</port>
			</input>
			<output>
				<port id="2" precision="FP32">
					<dim>1</dim>
					<dim>256</dim>
					<dim>52</dim>
					<dim>52</dim>
				</port>
			</output>
		</layer>
		<layer id="259" name="data_add_134931349814075/EltwiseUnsqueeze14303_const580_const" type="Const" version="opset1">
			<data offset="1247480" size="1024" shape="1,256,1,1" element_type="f32"/>
			<output>
				<port id="1" precision="FP32">
					<dim>1</dim>
					<dim>256</dim>
					<dim>1</dim>
					<dim>1</dim>
				</port>
			</output>
		</layer>
		<layer id="260" name="batch_normalization_13/FusedBatchNormV3/variance/Fused_Add_" type="Add" version="opset1">
			<input>
				<port id="0">
					<dim>1</dim>
					<dim>256</dim>
					<dim>52</dim>
					<dim>52</dim>
				</port>
				<port id="1">
					<dim>1</dim>
					<dim>256</dim>
					<dim>1</dim>
					<dim>1</dim>
				</port>
			</input>
			<output>
				<port id="2" precision="FP32">
					<dim>1</dim>
					<dim>256</dim>
					<dim>52</dim>
					<dim>52</dim>
				</port>
			</output>
		</layer>
		<layer id="261" name="leaky_re_lu_13/LeakyRelu/Cast_19430_const" type="Const" version="opset1">
			<data offset="1260" size="4" shape="1" element_type="f32"/>
			<output>
				<port id="1" precision="FP32">
					<dim>1</dim>
				</port>
			</output>
		</layer>
		<layer id="262" name="leaky_re_lu_13/LeakyRelu" type="PReLU" version="opset1">
			<input>
				<port id="0">
					<dim>1</dim>
					<dim>256</dim>
					<dim>52</dim>
					<dim>52</dim>
				</port>
				<port id="1">
					<dim>1</dim>
				</port>
			</input>
			<output>
				<port id="2" precision="FP32">
					<dim>1</dim>
					<dim>256</dim>
					<dim>52</dim>
					<dim>52</dim>
				</port>
			</output>
		</layer>
		<layer id="263" name="22082212_const" type="Const" version="opset1">
			<data offset="1248504" size="4" shape="" element_type="f32"/>
			<output>
				<port id="1" precision="FP32"/>
			</output>
		</layer>
		<layer id="264" name="22092213_const" type="Const" version="opset1">
			<data offset="1248508" size="4" shape="" element_type="f32"/>
			<output>
				<port id="1" precision="FP32"/>
			</output>
		</layer>
		<layer id="265" name="22102214_const" type="Const" version="opset1">
			<data offset="1248504" size="4" shape="" element_type="f32"/>
			<output>
				<port id="1" precision="FP32"/>
			</output>
		</layer>
		<layer id="266" name="22112215_const" type="Const" version="opset1">
			<data offset="1248508" size="4" shape="" element_type="f32"/>
			<output>
				<port id="1" precision="FP32"/>
			</output>
		</layer>
		<layer id="267" name="add_4/add/fq_input_1" type="FakeQuantize" version="opset1">
			<data levels="256"/>
			<input>
				<port id="0">
					<dim>1</dim>
					<dim>256</dim>
					<dim>52</dim>
					<dim>52</dim>
				</port>
				<port id="1"/>
				<port id="2"/>
				<port id="3"/>
				<port id="4"/>
			</input>
			<output>
				<port id="5" precision="FP32">
					<dim>1</dim>
					<dim>256</dim>
					<dim>52</dim>
					<dim>52</dim>
				</port>
			</output>
		</layer>
		<layer id="268" name="add_4/add" type="Add" version="opset1">
			<input>
				<port id="0">
					<dim>1</dim>
					<dim>256</dim>
					<dim>52</dim>
					<dim>52</dim>
				</port>
				<port id="1">
					<dim>1</dim>
					<dim>256</dim>
					<dim>52</dim>
					<dim>52</dim>
				</port>
			</input>
			<output>
				<port id="2" precision="FP32">
					<dim>1</dim>
					<dim>256</dim>
					<dim>52</dim>
					<dim>52</dim>
				</port>
			</output>
		</layer>
		<layer id="269" name="34383442_const" type="Const" version="opset1">
			<data offset="1248512" size="4" shape="" element_type="f32"/>
			<output>
				<port id="1" precision="FP32"/>
			</output>
		</layer>
		<layer id="270" name="34393443_const" type="Const" version="opset1">
			<data offset="1248516" size="4" shape="" element_type="f32"/>
			<output>
				<port id="1" precision="FP32"/>
			</output>
		</layer>
		<layer id="271" name="34403444_const" type="Const" version="opset1">
			<data offset="1248512" size="4" shape="" element_type="f32"/>
			<output>
				<port id="1" precision="FP32"/>
			</output>
		</layer>
		<layer id="272" name="34413445_const" type="Const" version="opset1">
			<data offset="1248516" size="4" shape="" element_type="f32"/>
			<output>
				<port id="1" precision="FP32"/>
			</output>
		</layer>
		<layer id="273" name="add_5/add/fq_input_0" type="FakeQuantize" version="opset1">
			<data levels="256"/>
			<input>
				<port id="0">
					<dim>1</dim>
					<dim>256</dim>
					<dim>52</dim>
					<dim>52</dim>
				</port>
				<port id="1"/>
				<port id="2"/>
				<port id="3"/>
				<port id="4"/>
			</input>
			<output>
				<port id="5" precision="FP32">
					<dim>1</dim>
					<dim>256</dim>
					<dim>52</dim>
					<dim>52</dim>
				</port>
			</output>
		</layer>
		<layer id="274" name="conv2d_14/Conv2D/fq_weights_1/Convert_to_float/Cast_09398_const" type="Const" version="opset1">
			<data offset="1248520" size="32768" shape="128,256,1,1" element_type="u8"/>
			<output>
				<port id="1" precision="U8">
					<dim>128</dim>
					<dim>256</dim>
					<dim>1</dim>
					<dim>1</dim>
				</port>
			</output>
		</layer>
		<layer id="275" name="conv2d_14/Conv2D/fq_weights_1/Convert_to_float" type="Convert" version="opset1">
			<data destination_type="f32"/>
			<input>
				<port id="0">
					<dim>128</dim>
					<dim>256</dim>
					<dim>1</dim>
					<dim>1</dim>
				</port>
			</input>
			<output>
				<port id="1" precision="FP32">
					<dim>128</dim>
					<dim>256</dim>
					<dim>1</dim>
					<dim>1</dim>
				</port>
			</output>
		</layer>
		<layer id="276" name="conv2d_14/Conv2D/fq_weights_1/Copy/out_low7904_const" type="Const" version="opset1">
			<data offset="0" size="4" shape="1" element_type="f32"/>
			<output>
				<port id="1" precision="FP32">
					<dim>1</dim>
				</port>
			</output>
		</layer>
		<layer id="277" name="conv2d_14/Conv2D/fq_weights_1/Copy/out_high7905_const" type="Const" version="opset1">
			<data offset="872" size="4" shape="1" element_type="f32"/>
			<output>
				<port id="1" precision="FP32">
					<dim>1</dim>
				</port>
			</output>
		</layer>
		<layer id="278" name="26502654_const" type="Const" version="opset1">
			<data offset="1281288" size="512" shape="128,1,1,1" element_type="f32"/>
			<output>
				<port id="1" precision="FP32">
					<dim>128</dim>
					<dim>1</dim>
					<dim>1</dim>
					<dim>1</dim>
				</port>
			</output>
		</layer>
		<layer id="279" name="26512655_const" type="Const" version="opset1">
			<data offset="1281800" size="512" shape="128,1,1,1" element_type="f32"/>
			<output>
				<port id="1" precision="FP32">
					<dim>128</dim>
					<dim>1</dim>
					<dim>1</dim>
					<dim>1</dim>
				</port>
			</output>
		</layer>
		<layer id="280" name="conv2d_14/Conv2D/fq_weights_1" type="FakeQuantize" version="opset1">
			<data levels="255"/>
			<input>
				<port id="0">
					<dim>128</dim>
					<dim>256</dim>
					<dim>1</dim>
					<dim>1</dim>
				</port>
				<port id="1">
					<dim>1</dim>
				</port>
				<port id="2">
					<dim>1</dim>
				</port>
				<port id="3">
					<dim>128</dim>
					<dim>1</dim>
					<dim>1</dim>
					<dim>1</dim>
				</port>
				<port id="4">
					<dim>128</dim>
					<dim>1</dim>
					<dim>1</dim>
					<dim>1</dim>
				</port>
			</input>
			<output>
				<port id="5" precision="FP32">
					<dim>128</dim>
					<dim>256</dim>
					<dim>1</dim>
					<dim>1</dim>
				</port>
			</output>
		</layer>
		<layer id="281" name="conv2d_14/Conv2D" type="Convolution" version="opset1">
			<data auto_pad="same_upper" strides="1,1" dilations="1,1" pads_begin="0,0" pads_end="0,0" output_padding="0,0"/>
			<input>
				<port id="0">
					<dim>1</dim>
					<dim>256</dim>
					<dim>52</dim>
					<dim>52</dim>
				</port>
				<port id="1">
					<dim>128</dim>
					<dim>256</dim>
					<dim>1</dim>
					<dim>1</dim>
				</port>
			</input>
			<output>
				<port id="2" precision="FP32">
					<dim>1</dim>
					<dim>128</dim>
					<dim>52</dim>
					<dim>52</dim>
				</port>
			</output>
		</layer>
		<layer id="282" name="data_add_135011350614077/EltwiseUnsqueeze14311_const587_const" type="Const" version="opset1">
			<data offset="1282312" size="512" shape="1,128,1,1" element_type="f32"/>
			<output>
				<port id="1" precision="FP32">
					<dim>1</dim>
					<dim>128</dim>
					<dim>1</dim>
					<dim>1</dim>
				</port>
			</output>
		</layer>
		<layer id="283" name="batch_normalization_14/FusedBatchNormV3/variance/Fused_Add_" type="Add" version="opset1">
			<input>
				<port id="0">
					<dim>1</dim>
					<dim>128</dim>
					<dim>52</dim>
					<dim>52</dim>
				</port>
				<port id="1">
					<dim>1</dim>
					<dim>128</dim>
					<dim>1</dim>
					<dim>1</dim>
				</port>
			</input>
			<output>
				<port id="2" precision="FP32">
					<dim>1</dim>
					<dim>128</dim>
					<dim>52</dim>
					<dim>52</dim>
				</port>
			</output>
		</layer>
		<layer id="284" name="leaky_re_lu_14/LeakyRelu/Cast_19230_const" type="Const" version="opset1">
			<data offset="1260" size="4" shape="1" element_type="f32"/>
			<output>
				<port id="1" precision="FP32">
					<dim>1</dim>
				</port>
			</output>
		</layer>
		<layer id="285" name="leaky_re_lu_14/LeakyRelu" type="PReLU" version="opset1">
			<input>
				<port id="0">
					<dim>1</dim>
					<dim>128</dim>
					<dim>52</dim>
					<dim>52</dim>
				</port>
				<port id="1">
					<dim>1</dim>
				</port>
			</input>
			<output>
				<port id="2" precision="FP32">
					<dim>1</dim>
					<dim>128</dim>
					<dim>52</dim>
					<dim>52</dim>
				</port>
			</output>
		</layer>
		<layer id="286" name="27582762_const" type="Const" version="opset1">
			<data offset="1282824" size="4" shape="" element_type="f32"/>
			<output>
				<port id="1" precision="FP32"/>
			</output>
		</layer>
		<layer id="287" name="27592763_const" type="Const" version="opset1">
			<data offset="1282828" size="4" shape="" element_type="f32"/>
			<output>
				<port id="1" precision="FP32"/>
			</output>
		</layer>
		<layer id="288" name="27602764_const" type="Const" version="opset1">
			<data offset="1282824" size="4" shape="" element_type="f32"/>
			<output>
				<port id="1" precision="FP32"/>
			</output>
		</layer>
		<layer id="289" name="27612765_const" type="Const" version="opset1">
			<data offset="1282828" size="4" shape="" element_type="f32"/>
			<output>
				<port id="1" precision="FP32"/>
			</output>
		</layer>
		<layer id="290" name="conv2d_15/Conv2D/fq_input_0" type="FakeQuantize" version="opset1">
			<data levels="256"/>
			<input>
				<port id="0">
					<dim>1</dim>
					<dim>128</dim>
					<dim>52</dim>
					<dim>52</dim>
				</port>
				<port id="1"/>
				<port id="2"/>
				<port id="3"/>
				<port id="4"/>
			</input>
			<output>
				<port id="5" precision="FP32">
					<dim>1</dim>
					<dim>128</dim>
					<dim>52</dim>
					<dim>52</dim>
				</port>
			</output>
		</layer>
		<layer id="291" name="conv2d_15/Conv2D/fq_weights_1/Convert_to_float/Cast_09162_const" type="Const" version="opset1">
			<data offset="1282832" size="294912" shape="256,128,3,3" element_type="u8"/>
			<output>
				<port id="1" precision="U8">
					<dim>256</dim>
					<dim>128</dim>
					<dim>3</dim>
					<dim>3</dim>
				</port>
			</output>
		</layer>
		<layer id="292" name="conv2d_15/Conv2D/fq_weights_1/Convert_to_float" type="Convert" version="opset1">
			<data destination_type="f32"/>
			<input>
				<port id="0">
					<dim>256</dim>
					<dim>128</dim>
					<dim>3</dim>
					<dim>3</dim>
				</port>
			</input>
			<output>
				<port id="1" precision="FP32">
					<dim>256</dim>
					<dim>128</dim>
					<dim>3</dim>
					<dim>3</dim>
				</port>
			</output>
		</layer>
		<layer id="293" name="conv2d_15/Conv2D/fq_weights_1/Copy/out_low7784_const" type="Const" version="opset1">
			<data offset="0" size="4" shape="1" element_type="f32"/>
			<output>
				<port id="1" precision="FP32">
					<dim>1</dim>
				</port>
			</output>
		</layer>
		<layer id="294" name="conv2d_15/Conv2D/fq_weights_1/Copy/out_high7785_const" type="Const" version="opset1">
			<data offset="872" size="4" shape="1" element_type="f32"/>
			<output>
				<port id="1" precision="FP32">
					<dim>1</dim>
				</port>
			</output>
		</layer>
		<layer id="295" name="27702774_const" type="Const" version="opset1">
			<data offset="1577744" size="1024" shape="256,1,1,1" element_type="f32"/>
			<output>
				<port id="1" precision="FP32">
					<dim>256</dim>
					<dim>1</dim>
					<dim>1</dim>
					<dim>1</dim>
				</port>
			</output>
		</layer>
		<layer id="296" name="27712775_const" type="Const" version="opset1">
			<data offset="1578768" size="1024" shape="256,1,1,1" element_type="f32"/>
			<output>
				<port id="1" precision="FP32">
					<dim>256</dim>
					<dim>1</dim>
					<dim>1</dim>
					<dim>1</dim>
				</port>
			</output>
		</layer>
		<layer id="297" name="conv2d_15/Conv2D/fq_weights_1" type="FakeQuantize" version="opset1">
			<data levels="255"/>
			<input>
				<port id="0">
					<dim>256</dim>
					<dim>128</dim>
					<dim>3</dim>
					<dim>3</dim>
				</port>
				<port id="1">
					<dim>1</dim>
				</port>
				<port id="2">
					<dim>1</dim>
				</port>
				<port id="3">
					<dim>256</dim>
					<dim>1</dim>
					<dim>1</dim>
					<dim>1</dim>
				</port>
				<port id="4">
					<dim>256</dim>
					<dim>1</dim>
					<dim>1</dim>
					<dim>1</dim>
				</port>
			</input>
			<output>
				<port id="5" precision="FP32">
					<dim>256</dim>
					<dim>128</dim>
					<dim>3</dim>
					<dim>3</dim>
				</port>
			</output>
		</layer>
		<layer id="298" name="conv2d_15/Conv2D" type="Convolution" version="opset1">
			<data auto_pad="same_upper" strides="1,1" dilations="1,1" pads_begin="0,0" pads_end="0,0" output_padding="0,0"/>
			<input>
				<port id="0">
					<dim>1</dim>
					<dim>128</dim>
					<dim>52</dim>
					<dim>52</dim>
				</port>
				<port id="1">
					<dim>256</dim>
					<dim>128</dim>
					<dim>3</dim>
					<dim>3</dim>
				</port>
			</input>
			<output>
				<port id="2" precision="FP32">
					<dim>1</dim>
					<dim>256</dim>
					<dim>52</dim>
					<dim>52</dim>
				</port>
			</output>
		</layer>
		<layer id="299" name="data_add_135091351414079/EltwiseUnsqueeze14319_const593_const" type="Const" version="opset1">
			<data offset="1579792" size="1024" shape="1,256,1,1" element_type="f32"/>
			<output>
				<port id="1" precision="FP32">
					<dim>1</dim>
					<dim>256</dim>
					<dim>1</dim>
					<dim>1</dim>
				</port>
			</output>
		</layer>
		<layer id="300" name="batch_normalization_15/FusedBatchNormV3/variance/Fused_Add_" type="Add" version="opset1">
			<input>
				<port id="0">
					<dim>1</dim>
					<dim>256</dim>
					<dim>52</dim>
					<dim>52</dim>
				</port>
				<port id="1">
					<dim>1</dim>
					<dim>256</dim>
					<dim>1</dim>
					<dim>1</dim>
				</port>
			</input>
			<output>
				<port id="2" precision="FP32">
					<dim>1</dim>
					<dim>256</dim>
					<dim>52</dim>
					<dim>52</dim>
				</port>
			</output>
		</layer>
		<layer id="301" name="leaky_re_lu_15/LeakyRelu/Cast_19164_const" type="Const" version="opset1">
			<data offset="1260" size="4" shape="1" element_type="f32"/>
			<output>
				<port id="1" precision="FP32">
					<dim>1</dim>
				</port>
			</output>
		</layer>
		<layer id="302" name="leaky_re_lu_15/LeakyRelu" type="PReLU" version="opset1">
			<input>
				<port id="0">
					<dim>1</dim>
					<dim>256</dim>
					<dim>52</dim>
					<dim>52</dim>
				</port>
				<port id="1">
					<dim>1</dim>
				</port>
			</input>
			<output>
				<port id="2" precision="FP32">
					<dim>1</dim>
					<dim>256</dim>
					<dim>52</dim>
					<dim>52</dim>
				</port>
			</output>
		</layer>
		<layer id="303" name="34483452_const" type="Const" version="opset1">
			<data offset="1580816" size="4" shape="" element_type="f32"/>
			<output>
				<port id="1" precision="FP32"/>
			</output>
		</layer>
		<layer id="304" name="34493453_const" type="Const" version="opset1">
			<data offset="1580820" size="4" shape="" element_type="f32"/>
			<output>
				<port id="1" precision="FP32"/>
			</output>
		</layer>
		<layer id="305" name="34503454_const" type="Const" version="opset1">
			<data offset="1580816" size="4" shape="" element_type="f32"/>
			<output>
				<port id="1" precision="FP32"/>
			</output>
		</layer>
		<layer id="306" name="34513455_const" type="Const" version="opset1">
			<data offset="1580820" size="4" shape="" element_type="f32"/>
			<output>
				<port id="1" precision="FP32"/>
			</output>
		</layer>
		<layer id="307" name="add_5/add/fq_input_1" type="FakeQuantize" version="opset1">
			<data levels="256"/>
			<input>
				<port id="0">
					<dim>1</dim>
					<dim>256</dim>
					<dim>52</dim>
					<dim>52</dim>
				</port>
				<port id="1"/>
				<port id="2"/>
				<port id="3"/>
				<port id="4"/>
			</input>
			<output>
				<port id="5" precision="FP32">
					<dim>1</dim>
					<dim>256</dim>
					<dim>52</dim>
					<dim>52</dim>
				</port>
			</output>
		</layer>
		<layer id="308" name="add_5/add" type="Add" version="opset1">
			<input>
				<port id="0">
					<dim>1</dim>
					<dim>256</dim>
					<dim>52</dim>
					<dim>52</dim>
				</port>
				<port id="1">
					<dim>1</dim>
					<dim>256</dim>
					<dim>52</dim>
					<dim>52</dim>
				</port>
			</input>
			<output>
				<port id="2" precision="FP32">
					<dim>1</dim>
					<dim>256</dim>
					<dim>52</dim>
					<dim>52</dim>
				</port>
			</output>
		</layer>
		<layer id="309" name="16981702_const" type="Const" version="opset1">
			<data offset="1580824" size="4" shape="" element_type="f32"/>
			<output>
				<port id="1" precision="FP32"/>
			</output>
		</layer>
		<layer id="310" name="16991703_const" type="Const" version="opset1">
			<data offset="1580828" size="4" shape="" element_type="f32"/>
			<output>
				<port id="1" precision="FP32"/>
			</output>
		</layer>
		<layer id="311" name="17001704_const" type="Const" version="opset1">
			<data offset="1580824" size="4" shape="" element_type="f32"/>
			<output>
				<port id="1" precision="FP32"/>
			</output>
		</layer>
		<layer id="312" name="17011705_const" type="Const" version="opset1">
			<data offset="1580828" size="4" shape="" element_type="f32"/>
			<output>
				<port id="1" precision="FP32"/>
			</output>
		</layer>
		<layer id="313" name="add_6/add/fq_input_0" type="FakeQuantize" version="opset1">
			<data levels="256"/>
			<input>
				<port id="0">
					<dim>1</dim>
					<dim>256</dim>
					<dim>52</dim>
					<dim>52</dim>
				</port>
				<port id="1"/>
				<port id="2"/>
				<port id="3"/>
				<port id="4"/>
			</input>
			<output>
				<port id="5" precision="FP32">
					<dim>1</dim>
					<dim>256</dim>
					<dim>52</dim>
					<dim>52</dim>
				</port>
			</output>
		</layer>
		<layer id="314" name="conv2d_16/Conv2D/fq_weights_1/Convert_to_float/Cast_09272_const" type="Const" version="opset1">
			<data offset="1580832" size="32768" shape="128,256,1,1" element_type="u8"/>
			<output>
				<port id="1" precision="U8">
					<dim>128</dim>
					<dim>256</dim>
					<dim>1</dim>
					<dim>1</dim>
				</port>
			</output>
		</layer>
		<layer id="315" name="conv2d_16/Conv2D/fq_weights_1/Convert_to_float" type="Convert" version="opset1">
			<data destination_type="f32"/>
			<input>
				<port id="0">
					<dim>128</dim>
					<dim>256</dim>
					<dim>1</dim>
					<dim>1</dim>
				</port>
			</input>
			<output>
				<port id="1" precision="FP32">
					<dim>128</dim>
					<dim>256</dim>
					<dim>1</dim>
					<dim>1</dim>
				</port>
			</output>
		</layer>
		<layer id="316" name="conv2d_16/Conv2D/fq_weights_1/Copy/out_low8072_const" type="Const" version="opset1">
			<data offset="0" size="4" shape="1" element_type="f32"/>
			<output>
				<port id="1" precision="FP32">
					<dim>1</dim>
				</port>
			</output>
		</layer>
		<layer id="317" name="conv2d_16/Conv2D/fq_weights_1/Copy/out_high8073_const" type="Const" version="opset1">
			<data offset="872" size="4" shape="1" element_type="f32"/>
			<output>
				<port id="1" precision="FP32">
					<dim>1</dim>
				</port>
			</output>
		</layer>
		<layer id="318" name="35303534_const" type="Const" version="opset1">
			<data offset="1613600" size="512" shape="128,1,1,1" element_type="f32"/>
			<output>
				<port id="1" precision="FP32">
					<dim>128</dim>
					<dim>1</dim>
					<dim>1</dim>
					<dim>1</dim>
				</port>
			</output>
		</layer>
		<layer id="319" name="35313535_const" type="Const" version="opset1">
			<data offset="1614112" size="512" shape="128,1,1,1" element_type="f32"/>
			<output>
				<port id="1" precision="FP32">
					<dim>128</dim>
					<dim>1</dim>
					<dim>1</dim>
					<dim>1</dim>
				</port>
			</output>
		</layer>
		<layer id="320" name="conv2d_16/Conv2D/fq_weights_1" type="FakeQuantize" version="opset1">
			<data levels="255"/>
			<input>
				<port id="0">
					<dim>128</dim>
					<dim>256</dim>
					<dim>1</dim>
					<dim>1</dim>
				</port>
				<port id="1">
					<dim>1</dim>
				</port>
				<port id="2">
					<dim>1</dim>
				</port>
				<port id="3">
					<dim>128</dim>
					<dim>1</dim>
					<dim>1</dim>
					<dim>1</dim>
				</port>
				<port id="4">
					<dim>128</dim>
					<dim>1</dim>
					<dim>1</dim>
					<dim>1</dim>
				</port>
			</input>
			<output>
				<port id="5" precision="FP32">
					<dim>128</dim>
					<dim>256</dim>
					<dim>1</dim>
					<dim>1</dim>
				</port>
			</output>
		</layer>
		<layer id="321" name="conv2d_16/Conv2D" type="Convolution" version="opset1">
			<data auto_pad="same_upper" strides="1,1" dilations="1,1" pads_begin="0,0" pads_end="0,0" output_padding="0,0"/>
			<input>
				<port id="0">
					<dim>1</dim>
					<dim>256</dim>
					<dim>52</dim>
					<dim>52</dim>
				</port>
				<port id="1">
					<dim>128</dim>
					<dim>256</dim>
					<dim>1</dim>
					<dim>1</dim>
				</port>
			</input>
			<output>
				<port id="2" precision="FP32">
					<dim>1</dim>
					<dim>128</dim>
					<dim>52</dim>
					<dim>52</dim>
				</port>
			</output>
		</layer>
		<layer id="322" name="data_add_135171352214081/EltwiseUnsqueeze14327_const600_const" type="Const" version="opset1">
			<data offset="1614624" size="512" shape="1,128,1,1" element_type="f32"/>
			<output>
				<port id="1" precision="FP32">
					<dim>1</dim>
					<dim>128</dim>
					<dim>1</dim>
					<dim>1</dim>
				</port>
			</output>
		</layer>
		<layer id="323" name="batch_normalization_16/FusedBatchNormV3/variance/Fused_Add_" type="Add" version="opset1">
			<input>
				<port id="0">
					<dim>1</dim>
					<dim>128</dim>
					<dim>52</dim>
					<dim>52</dim>
				</port>
				<port id="1">
					<dim>1</dim>
					<dim>128</dim>
					<dim>1</dim>
					<dim>1</dim>
				</port>
			</input>
			<output>
				<port id="2" precision="FP32">
					<dim>1</dim>
					<dim>128</dim>
					<dim>52</dim>
					<dim>52</dim>
				</port>
			</output>
		</layer>
		<layer id="324" name="leaky_re_lu_16/LeakyRelu/Cast_19310_const" type="Const" version="opset1">
			<data offset="1260" size="4" shape="1" element_type="f32"/>
			<output>
				<port id="1" precision="FP32">
					<dim>1</dim>
				</port>
			</output>
		</layer>
		<layer id="325" name="leaky_re_lu_16/LeakyRelu" type="PReLU" version="opset1">
			<input>
				<port id="0">
					<dim>1</dim>
					<dim>128</dim>
					<dim>52</dim>
					<dim>52</dim>
				</port>
				<port id="1">
					<dim>1</dim>
				</port>
			</input>
			<output>
				<port id="2" precision="FP32">
					<dim>1</dim>
					<dim>128</dim>
					<dim>52</dim>
					<dim>52</dim>
				</port>
			</output>
		</layer>
		<layer id="326" name="18181822_const" type="Const" version="opset1">
			<data offset="1615136" size="4" shape="" element_type="f32"/>
			<output>
				<port id="1" precision="FP32"/>
			</output>
		</layer>
		<layer id="327" name="18191823_const" type="Const" version="opset1">
			<data offset="1615140" size="4" shape="" element_type="f32"/>
			<output>
				<port id="1" precision="FP32"/>
			</output>
		</layer>
		<layer id="328" name="18201824_const" type="Const" version="opset1">
			<data offset="1615136" size="4" shape="" element_type="f32"/>
			<output>
				<port id="1" precision="FP32"/>
			</output>
		</layer>
		<layer id="329" name="18211825_const" type="Const" version="opset1">
			<data offset="1615140" size="4" shape="" element_type="f32"/>
			<output>
				<port id="1" precision="FP32"/>
			</output>
		</layer>
		<layer id="330" name="conv2d_17/Conv2D/fq_input_0" type="FakeQuantize" version="opset1">
			<data levels="256"/>
			<input>
				<port id="0">
					<dim>1</dim>
					<dim>128</dim>
					<dim>52</dim>
					<dim>52</dim>
				</port>
				<port id="1"/>
				<port id="2"/>
				<port id="3"/>
				<port id="4"/>
			</input>
			<output>
				<port id="5" precision="FP32">
					<dim>1</dim>
					<dim>128</dim>
					<dim>52</dim>
					<dim>52</dim>
				</port>
			</output>
		</layer>
		<layer id="331" name="conv2d_17/Conv2D/fq_weights_1/Convert_to_float/Cast_09334_const" type="Const" version="opset1">
			<data offset="1615144" size="294912" shape="256,128,3,3" element_type="u8"/>
			<output>
				<port id="1" precision="U8">
					<dim>256</dim>
					<dim>128</dim>
					<dim>3</dim>
					<dim>3</dim>
				</port>
			</output>
		</layer>
		<layer id="332" name="conv2d_17/Conv2D/fq_weights_1/Convert_to_float" type="Convert" version="opset1">
			<data destination_type="f32"/>
			<input>
				<port id="0">
					<dim>256</dim>
					<dim>128</dim>
					<dim>3</dim>
					<dim>3</dim>
				</port>
			</input>
			<output>
				<port id="1" precision="FP32">
					<dim>256</dim>
					<dim>128</dim>
					<dim>3</dim>
					<dim>3</dim>
				</port>
			</output>
		</layer>
		<layer id="333" name="conv2d_17/Conv2D/fq_weights_1/Copy/out_low8192_const" type="Const" version="opset1">
			<data offset="0" size="4" shape="1" element_type="f32"/>
			<output>
				<port id="1" precision="FP32">
					<dim>1</dim>
				</port>
			</output>
		</layer>
		<layer id="334" name="conv2d_17/Conv2D/fq_weights_1/Copy/out_high8193_const" type="Const" version="opset1">
			<data offset="872" size="4" shape="1" element_type="f32"/>
			<output>
				<port id="1" precision="FP32">
					<dim>1</dim>
				</port>
			</output>
		</layer>
		<layer id="335" name="18301834_const" type="Const" version="opset1">
			<data offset="1910056" size="1024" shape="256,1,1,1" element_type="f32"/>
			<output>
				<port id="1" precision="FP32">
					<dim>256</dim>
					<dim>1</dim>
					<dim>1</dim>
					<dim>1</dim>
				</port>
			</output>
		</layer>
		<layer id="336" name="18311835_const" type="Const" version="opset1">
			<data offset="1911080" size="1024" shape="256,1,1,1" element_type="f32"/>
			<output>
				<port id="1" precision="FP32">
					<dim>256</dim>
					<dim>1</dim>
					<dim>1</dim>
					<dim>1</dim>
				</port>
			</output>
		</layer>
		<layer id="337" name="conv2d_17/Conv2D/fq_weights_1" type="FakeQuantize" version="opset1">
			<data levels="255"/>
			<input>
				<port id="0">
					<dim>256</dim>
					<dim>128</dim>
					<dim>3</dim>
					<dim>3</dim>
				</port>
				<port id="1">
					<dim>1</dim>
				</port>
				<port id="2">
					<dim>1</dim>
				</port>
				<port id="3">
					<dim>256</dim>
					<dim>1</dim>
					<dim>1</dim>
					<dim>1</dim>
				</port>
				<port id="4">
					<dim>256</dim>
					<dim>1</dim>
					<dim>1</dim>
					<dim>1</dim>
				</port>
			</input>
			<output>
				<port id="5" precision="FP32">
					<dim>256</dim>
					<dim>128</dim>
					<dim>3</dim>
					<dim>3</dim>
				</port>
			</output>
		</layer>
		<layer id="338" name="conv2d_17/Conv2D" type="Convolution" version="opset1">
			<data auto_pad="same_upper" strides="1,1" dilations="1,1" pads_begin="0,0" pads_end="0,0" output_padding="0,0"/>
			<input>
				<port id="0">
					<dim>1</dim>
					<dim>128</dim>
					<dim>52</dim>
					<dim>52</dim>
				</port>
				<port id="1">
					<dim>256</dim>
					<dim>128</dim>
					<dim>3</dim>
					<dim>3</dim>
				</port>
			</input>
			<output>
				<port id="2" precision="FP32">
					<dim>1</dim>
					<dim>256</dim>
					<dim>52</dim>
					<dim>52</dim>
				</port>
			</output>
		</layer>
		<layer id="339" name="data_add_135251353014083/EltwiseUnsqueeze14335_const606_const" type="Const" version="opset1">
			<data offset="1912104" size="1024" shape="1,256,1,1" element_type="f32"/>
			<output>
				<port id="1" precision="FP32">
					<dim>1</dim>
					<dim>256</dim>
					<dim>1</dim>
					<dim>1</dim>
				</port>
			</output>
		</layer>
		<layer id="340" name="batch_normalization_17/FusedBatchNormV3/variance/Fused_Add_" type="Add" version="opset1">
			<input>
				<port id="0">
					<dim>1</dim>
					<dim>256</dim>
					<dim>52</dim>
					<dim>52</dim>
				</port>
				<port id="1">
					<dim>1</dim>
					<dim>256</dim>
					<dim>1</dim>
					<dim>1</dim>
				</port>
			</input>
			<output>
				<port id="2" precision="FP32">
					<dim>1</dim>
					<dim>256</dim>
					<dim>52</dim>
					<dim>52</dim>
				</port>
			</output>
		</layer>
		<layer id="341" name="leaky_re_lu_17/LeakyRelu/Cast_19220_const" type="Const" version="opset1">
			<data offset="1260" size="4" shape="1" element_type="f32"/>
			<output>
				<port id="1" precision="FP32">
					<dim>1</dim>
				</port>
			</output>
		</layer>
		<layer id="342" name="leaky_re_lu_17/LeakyRelu" type="PReLU" version="opset1">
			<input>
				<port id="0">
					<dim>1</dim>
					<dim>256</dim>
					<dim>52</dim>
					<dim>52</dim>
				</port>
				<port id="1">
					<dim>1</dim>
				</port>
			</input>
			<output>
				<port id="2" precision="FP32">
					<dim>1</dim>
					<dim>256</dim>
					<dim>52</dim>
					<dim>52</dim>
				</port>
			</output>
		</layer>
		<layer id="343" name="17081712_const" type="Const" version="opset1">
			<data offset="1913128" size="4" shape="" element_type="f32"/>
			<output>
				<port id="1" precision="FP32"/>
			</output>
		</layer>
		<layer id="344" name="17091713_const" type="Const" version="opset1">
			<data offset="1913132" size="4" shape="" element_type="f32"/>
			<output>
				<port id="1" precision="FP32"/>
			</output>
		</layer>
		<layer id="345" name="17101714_const" type="Const" version="opset1">
			<data offset="1913128" size="4" shape="" element_type="f32"/>
			<output>
				<port id="1" precision="FP32"/>
			</output>
		</layer>
		<layer id="346" name="17111715_const" type="Const" version="opset1">
			<data offset="1913132" size="4" shape="" element_type="f32"/>
			<output>
				<port id="1" precision="FP32"/>
			</output>
		</layer>
		<layer id="347" name="add_6/add/fq_input_1" type="FakeQuantize" version="opset1">
			<data levels="256"/>
			<input>
				<port id="0">
					<dim>1</dim>
					<dim>256</dim>
					<dim>52</dim>
					<dim>52</dim>
				</port>
				<port id="1"/>
				<port id="2"/>
				<port id="3"/>
				<port id="4"/>
			</input>
			<output>
				<port id="5" precision="FP32">
					<dim>1</dim>
					<dim>256</dim>
					<dim>52</dim>
					<dim>52</dim>
				</port>
			</output>
		</layer>
		<layer id="348" name="add_6/add" type="Add" version="opset1">
			<input>
				<port id="0">
					<dim>1</dim>
					<dim>256</dim>
					<dim>52</dim>
					<dim>52</dim>
				</port>
				<port id="1">
					<dim>1</dim>
					<dim>256</dim>
					<dim>52</dim>
					<dim>52</dim>
				</port>
			</input>
			<output>
				<port id="2" precision="FP32">
					<dim>1</dim>
					<dim>256</dim>
					<dim>52</dim>
					<dim>52</dim>
				</port>
			</output>
		</layer>
		<layer id="349" name="32783282_const" type="Const" version="opset1">
			<data offset="1913136" size="4" shape="" element_type="f32"/>
			<output>
				<port id="1" precision="FP32"/>
			</output>
		</layer>
		<layer id="350" name="32793283_const" type="Const" version="opset1">
			<data offset="1913140" size="4" shape="" element_type="f32"/>
			<output>
				<port id="1" precision="FP32"/>
			</output>
		</layer>
		<layer id="351" name="32803284_const" type="Const" version="opset1">
			<data offset="1913136" size="4" shape="" element_type="f32"/>
			<output>
				<port id="1" precision="FP32"/>
			</output>
		</layer>
		<layer id="352" name="32813285_const" type="Const" version="opset1">
			<data offset="1913140" size="4" shape="" element_type="f32"/>
			<output>
				<port id="1" precision="FP32"/>
			</output>
		</layer>
		<layer id="353" name="add_7/add/fq_input_0" type="FakeQuantize" version="opset1">
			<data levels="256"/>
			<input>
				<port id="0">
					<dim>1</dim>
					<dim>256</dim>
					<dim>52</dim>
					<dim>52</dim>
				</port>
				<port id="1"/>
				<port id="2"/>
				<port id="3"/>
				<port id="4"/>
			</input>
			<output>
				<port id="5" precision="FP32">
					<dim>1</dim>
					<dim>256</dim>
					<dim>52</dim>
					<dim>52</dim>
				</port>
			</output>
		</layer>
		<layer id="354" name="conv2d_18/Conv2D/fq_weights_1/Convert_to_float/Cast_09170_const" type="Const" version="opset1">
			<data offset="1913144" size="32768" shape="128,256,1,1" element_type="u8"/>
			<output>
				<port id="1" precision="U8">
					<dim>128</dim>
					<dim>256</dim>
					<dim>1</dim>
					<dim>1</dim>
				</port>
			</output>
		</layer>
		<layer id="355" name="conv2d_18/Conv2D/fq_weights_1/Convert_to_float" type="Convert" version="opset1">
			<data destination_type="f32"/>
			<input>
				<port id="0">
					<dim>128</dim>
					<dim>256</dim>
					<dim>1</dim>
					<dim>1</dim>
				</port>
			</input>
			<output>
				<port id="1" precision="FP32">
					<dim>128</dim>
					<dim>256</dim>
					<dim>1</dim>
					<dim>1</dim>
				</port>
			</output>
		</layer>
		<layer id="356" name="conv2d_18/Conv2D/fq_weights_1/Copy/out_low7888_const" type="Const" version="opset1">
			<data offset="0" size="4" shape="1" element_type="f32"/>
			<output>
				<port id="1" precision="FP32">
					<dim>1</dim>
				</port>
			</output>
		</layer>
		<layer id="357" name="conv2d_18/Conv2D/fq_weights_1/Copy/out_high7889_const" type="Const" version="opset1">
			<data offset="872" size="4" shape="1" element_type="f32"/>
			<output>
				<port id="1" precision="FP32">
					<dim>1</dim>
				</port>
			</output>
		</layer>
		<layer id="358" name="35903594_const" type="Const" version="opset1">
			<data offset="1945912" size="512" shape="128,1,1,1" element_type="f32"/>
			<output>
				<port id="1" precision="FP32">
					<dim>128</dim>
					<dim>1</dim>
					<dim>1</dim>
					<dim>1</dim>
				</port>
			</output>
		</layer>
		<layer id="359" name="35913595_const" type="Const" version="opset1">
			<data offset="1946424" size="512" shape="128,1,1,1" element_type="f32"/>
			<output>
				<port id="1" precision="FP32">
					<dim>128</dim>
					<dim>1</dim>
					<dim>1</dim>
					<dim>1</dim>
				</port>
			</output>
		</layer>
		<layer id="360" name="conv2d_18/Conv2D/fq_weights_1" type="FakeQuantize" version="opset1">
			<data levels="255"/>
			<input>
				<port id="0">
					<dim>128</dim>
					<dim>256</dim>
					<dim>1</dim>
					<dim>1</dim>
				</port>
				<port id="1">
					<dim>1</dim>
				</port>
				<port id="2">
					<dim>1</dim>
				</port>
				<port id="3">
					<dim>128</dim>
					<dim>1</dim>
					<dim>1</dim>
					<dim>1</dim>
				</port>
				<port id="4">
					<dim>128</dim>
					<dim>1</dim>
					<dim>1</dim>
					<dim>1</dim>
				</port>
			</input>
			<output>
				<port id="5" precision="FP32">
					<dim>128</dim>
					<dim>256</dim>
					<dim>1</dim>
					<dim>1</dim>
				</port>
			</output>
		</layer>
		<layer id="361" name="conv2d_18/Conv2D" type="Convolution" version="opset1">
			<data auto_pad="same_upper" strides="1,1" dilations="1,1" pads_begin="0,0" pads_end="0,0" output_padding="0,0"/>
			<input>
				<port id="0">
					<dim>1</dim>
					<dim>256</dim>
					<dim>52</dim>
					<dim>52</dim>
				</port>
				<port id="1">
					<dim>128</dim>
					<dim>256</dim>
					<dim>1</dim>
					<dim>1</dim>
				</port>
			</input>
			<output>
				<port id="2" precision="FP32">
					<dim>1</dim>
					<dim>128</dim>
					<dim>52</dim>
					<dim>52</dim>
				</port>
			</output>
		</layer>
		<layer id="362" name="data_add_135331353814085/EltwiseUnsqueeze14343_const613_const" type="Const" version="opset1">
			<data offset="1946936" size="512" shape="1,128,1,1" element_type="f32"/>
			<output>
				<port id="1" precision="FP32">
					<dim>1</dim>
					<dim>128</dim>
					<dim>1</dim>
					<dim>1</dim>
				</port>
			</output>
		</layer>
		<layer id="363" name="batch_normalization_18/FusedBatchNormV3/variance/Fused_Add_" type="Add" version="opset1">
			<input>
				<port id="0">
					<dim>1</dim>
					<dim>128</dim>
					<dim>52</dim>
					<dim>52</dim>
				</port>
				<port id="1">
					<dim>1</dim>
					<dim>128</dim>
					<dim>1</dim>
					<dim>1</dim>
				</port>
			</input>
			<output>
				<port id="2" precision="FP32">
					<dim>1</dim>
					<dim>128</dim>
					<dim>52</dim>
					<dim>52</dim>
				</port>
			</output>
		</layer>
		<layer id="364" name="leaky_re_lu_18/LeakyRelu/Cast_19266_const" type="Const" version="opset1">
			<data offset="1260" size="4" shape="1" element_type="f32"/>
			<output>
				<port id="1" precision="FP32">
					<dim>1</dim>
				</port>
			</output>
		</layer>
		<layer id="365" name="leaky_re_lu_18/LeakyRelu" type="PReLU" version="opset1">
			<input>
				<port id="0">
					<dim>1</dim>
					<dim>128</dim>
					<dim>52</dim>
					<dim>52</dim>
				</port>
				<port id="1">
					<dim>1</dim>
				</port>
			</input>
			<output>
				<port id="2" precision="FP32">
					<dim>1</dim>
					<dim>128</dim>
					<dim>52</dim>
					<dim>52</dim>
				</port>
			</output>
		</layer>
		<layer id="366" name="17981802_const" type="Const" version="opset1">
			<data offset="1947448" size="4" shape="" element_type="f32"/>
			<output>
				<port id="1" precision="FP32"/>
			</output>
		</layer>
		<layer id="367" name="17991803_const" type="Const" version="opset1">
			<data offset="1947452" size="4" shape="" element_type="f32"/>
			<output>
				<port id="1" precision="FP32"/>
			</output>
		</layer>
		<layer id="368" name="18001804_const" type="Const" version="opset1">
			<data offset="1947448" size="4" shape="" element_type="f32"/>
			<output>
				<port id="1" precision="FP32"/>
			</output>
		</layer>
		<layer id="369" name="18011805_const" type="Const" version="opset1">
			<data offset="1947452" size="4" shape="" element_type="f32"/>
			<output>
				<port id="1" precision="FP32"/>
			</output>
		</layer>
		<layer id="370" name="conv2d_19/Conv2D/fq_input_0" type="FakeQuantize" version="opset1">
			<data levels="256"/>
			<input>
				<port id="0">
					<dim>1</dim>
					<dim>128</dim>
					<dim>52</dim>
					<dim>52</dim>
				</port>
				<port id="1"/>
				<port id="2"/>
				<port id="3"/>
				<port id="4"/>
			</input>
			<output>
				<port id="5" precision="FP32">
					<dim>1</dim>
					<dim>128</dim>
					<dim>52</dim>
					<dim>52</dim>
				</port>
			</output>
		</layer>
		<layer id="371" name="conv2d_19/Conv2D/fq_weights_1/Convert_to_float/Cast_09136_const" type="Const" version="opset1">
			<data offset="1947456" size="294912" shape="256,128,3,3" element_type="u8"/>
			<output>
				<port id="1" precision="U8">
					<dim>256</dim>
					<dim>128</dim>
					<dim>3</dim>
					<dim>3</dim>
				</port>
			</output>
		</layer>
		<layer id="372" name="conv2d_19/Conv2D/fq_weights_1/Convert_to_float" type="Convert" version="opset1">
			<data destination_type="f32"/>
			<input>
				<port id="0">
					<dim>256</dim>
					<dim>128</dim>
					<dim>3</dim>
					<dim>3</dim>
				</port>
			</input>
			<output>
				<port id="1" precision="FP32">
					<dim>256</dim>
					<dim>128</dim>
					<dim>3</dim>
					<dim>3</dim>
				</port>
			</output>
		</layer>
		<layer id="373" name="conv2d_19/Conv2D/fq_weights_1/Copy/out_low7952_const" type="Const" version="opset1">
			<data offset="0" size="4" shape="1" element_type="f32"/>
			<output>
				<port id="1" precision="FP32">
					<dim>1</dim>
				</port>
			</output>
		</layer>
		<layer id="374" name="conv2d_19/Conv2D/fq_weights_1/Copy/out_high7953_const" type="Const" version="opset1">
			<data offset="872" size="4" shape="1" element_type="f32"/>
			<output>
				<port id="1" precision="FP32">
					<dim>1</dim>
				</port>
			</output>
		</layer>
		<layer id="375" name="18101814_const" type="Const" version="opset1">
			<data offset="2242368" size="1024" shape="256,1,1,1" element_type="f32"/>
			<output>
				<port id="1" precision="FP32">
					<dim>256</dim>
					<dim>1</dim>
					<dim>1</dim>
					<dim>1</dim>
				</port>
			</output>
		</layer>
		<layer id="376" name="18111815_const" type="Const" version="opset1">
			<data offset="2243392" size="1024" shape="256,1,1,1" element_type="f32"/>
			<output>
				<port id="1" precision="FP32">
					<dim>256</dim>
					<dim>1</dim>
					<dim>1</dim>
					<dim>1</dim>
				</port>
			</output>
		</layer>
		<layer id="377" name="conv2d_19/Conv2D/fq_weights_1" type="FakeQuantize" version="opset1">
			<data levels="255"/>
			<input>
				<port id="0">
					<dim>256</dim>
					<dim>128</dim>
					<dim>3</dim>
					<dim>3</dim>
				</port>
				<port id="1">
					<dim>1</dim>
				</port>
				<port id="2">
					<dim>1</dim>
				</port>
				<port id="3">
					<dim>256</dim>
					<dim>1</dim>
					<dim>1</dim>
					<dim>1</dim>
				</port>
				<port id="4">
					<dim>256</dim>
					<dim>1</dim>
					<dim>1</dim>
					<dim>1</dim>
				</port>
			</input>
			<output>
				<port id="5" precision="FP32">
					<dim>256</dim>
					<dim>128</dim>
					<dim>3</dim>
					<dim>3</dim>
				</port>
			</output>
		</layer>
		<layer id="378" name="conv2d_19/Conv2D" type="Convolution" version="opset1">
			<data auto_pad="same_upper" strides="1,1" dilations="1,1" pads_begin="0,0" pads_end="0,0" output_padding="0,0"/>
			<input>
				<port id="0">
					<dim>1</dim>
					<dim>128</dim>
					<dim>52</dim>
					<dim>52</dim>
				</port>
				<port id="1">
					<dim>256</dim>
					<dim>128</dim>
					<dim>3</dim>
					<dim>3</dim>
				</port>
			</input>
			<output>
				<port id="2" precision="FP32">
					<dim>1</dim>
					<dim>256</dim>
					<dim>52</dim>
					<dim>52</dim>
				</port>
			</output>
		</layer>
		<layer id="379" name="data_add_135411354614087/EltwiseUnsqueeze14351_const619_const" type="Const" version="opset1">
			<data offset="2244416" size="1024" shape="1,256,1,1" element_type="f32"/>
			<output>
				<port id="1" precision="FP32">
					<dim>1</dim>
					<dim>256</dim>
					<dim>1</dim>
					<dim>1</dim>
				</port>
			</output>
		</layer>
		<layer id="380" name="batch_normalization_19/FusedBatchNormV3/variance/Fused_Add_" type="Add" version="opset1">
			<input>
				<port id="0">
					<dim>1</dim>
					<dim>256</dim>
					<dim>52</dim>
					<dim>52</dim>
				</port>
				<port id="1">
					<dim>1</dim>
					<dim>256</dim>
					<dim>1</dim>
					<dim>1</dim>
				</port>
			</input>
			<output>
				<port id="2" precision="FP32">
					<dim>1</dim>
					<dim>256</dim>
					<dim>52</dim>
					<dim>52</dim>
				</port>
			</output>
		</layer>
		<layer id="381" name="leaky_re_lu_19/LeakyRelu/Cast_19244_const" type="Const" version="opset1">
			<data offset="1260" size="4" shape="1" element_type="f32"/>
			<output>
				<port id="1" precision="FP32">
					<dim>1</dim>
				</port>
			</output>
		</layer>
		<layer id="382" name="leaky_re_lu_19/LeakyRelu" type="PReLU" version="opset1">
			<input>
				<port id="0">
					<dim>1</dim>
					<dim>256</dim>
					<dim>52</dim>
					<dim>52</dim>
				</port>
				<port id="1">
					<dim>1</dim>
				</port>
			</input>
			<output>
				<port id="2" precision="FP32">
					<dim>1</dim>
					<dim>256</dim>
					<dim>52</dim>
					<dim>52</dim>
				</port>
			</output>
		</layer>
		<layer id="383" name="32883292_const" type="Const" version="opset1">
			<data offset="2245440" size="4" shape="" element_type="f32"/>
			<output>
				<port id="1" precision="FP32"/>
			</output>
		</layer>
		<layer id="384" name="32893293_const" type="Const" version="opset1">
			<data offset="2245444" size="4" shape="" element_type="f32"/>
			<output>
				<port id="1" precision="FP32"/>
			</output>
		</layer>
		<layer id="385" name="32903294_const" type="Const" version="opset1">
			<data offset="2245440" size="4" shape="" element_type="f32"/>
			<output>
				<port id="1" precision="FP32"/>
			</output>
		</layer>
		<layer id="386" name="32913295_const" type="Const" version="opset1">
			<data offset="2245444" size="4" shape="" element_type="f32"/>
			<output>
				<port id="1" precision="FP32"/>
			</output>
		</layer>
		<layer id="387" name="add_7/add/fq_input_1" type="FakeQuantize" version="opset1">
			<data levels="256"/>
			<input>
				<port id="0">
					<dim>1</dim>
					<dim>256</dim>
					<dim>52</dim>
					<dim>52</dim>
				</port>
				<port id="1"/>
				<port id="2"/>
				<port id="3"/>
				<port id="4"/>
			</input>
			<output>
				<port id="5" precision="FP32">
					<dim>1</dim>
					<dim>256</dim>
					<dim>52</dim>
					<dim>52</dim>
				</port>
			</output>
		</layer>
		<layer id="388" name="add_7/add" type="Add" version="opset1">
			<input>
				<port id="0">
					<dim>1</dim>
					<dim>256</dim>
					<dim>52</dim>
					<dim>52</dim>
				</port>
				<port id="1">
					<dim>1</dim>
					<dim>256</dim>
					<dim>52</dim>
					<dim>52</dim>
				</port>
			</input>
			<output>
				<port id="2" precision="FP32">
					<dim>1</dim>
					<dim>256</dim>
					<dim>52</dim>
					<dim>52</dim>
				</port>
			</output>
		</layer>
		<layer id="389" name="31983202_const" type="Const" version="opset1">
			<data offset="2245448" size="4" shape="" element_type="f32"/>
			<output>
				<port id="1" precision="FP32"/>
			</output>
		</layer>
		<layer id="390" name="31993203_const" type="Const" version="opset1">
			<data offset="2245452" size="4" shape="" element_type="f32"/>
			<output>
				<port id="1" precision="FP32"/>
			</output>
		</layer>
		<layer id="391" name="32003204_const" type="Const" version="opset1">
			<data offset="2245448" size="4" shape="" element_type="f32"/>
			<output>
				<port id="1" precision="FP32"/>
			</output>
		</layer>
		<layer id="392" name="32013205_const" type="Const" version="opset1">
			<data offset="2245452" size="4" shape="" element_type="f32"/>
			<output>
				<port id="1" precision="FP32"/>
			</output>
		</layer>
		<layer id="393" name="add_8/add/fq_input_0" type="FakeQuantize" version="opset1">
			<data levels="256"/>
			<input>
				<port id="0">
					<dim>1</dim>
					<dim>256</dim>
					<dim>52</dim>
					<dim>52</dim>
				</port>
				<port id="1"/>
				<port id="2"/>
				<port id="3"/>
				<port id="4"/>
			</input>
			<output>
				<port id="5" precision="FP32">
					<dim>1</dim>
					<dim>256</dim>
					<dim>52</dim>
					<dim>52</dim>
				</port>
			</output>
		</layer>
		<layer id="394" name="conv2d_20/Conv2D/fq_weights_1/Convert_to_float/Cast_09432_const" type="Const" version="opset1">
			<data offset="2245456" size="32768" shape="128,256,1,1" element_type="u8"/>
			<output>
				<port id="1" precision="U8">
					<dim>128</dim>
					<dim>256</dim>
					<dim>1</dim>
					<dim>1</dim>
				</port>
			</output>
		</layer>
		<layer id="395" name="conv2d_20/Conv2D/fq_weights_1/Convert_to_float" type="Convert" version="opset1">
			<data destination_type="f32"/>
			<input>
				<port id="0">
					<dim>128</dim>
					<dim>256</dim>
					<dim>1</dim>
					<dim>1</dim>
				</port>
			</input>
			<output>
				<port id="1" precision="FP32">
					<dim>128</dim>
					<dim>256</dim>
					<dim>1</dim>
					<dim>1</dim>
				</port>
			</output>
		</layer>
		<layer id="396" name="conv2d_20/Conv2D/fq_weights_1/Copy/out_low7936_const" type="Const" version="opset1">
			<data offset="0" size="4" shape="1" element_type="f32"/>
			<output>
				<port id="1" precision="FP32">
					<dim>1</dim>
				</port>
			</output>
		</layer>
		<layer id="397" name="conv2d_20/Conv2D/fq_weights_1/Copy/out_high7937_const" type="Const" version="opset1">
			<data offset="872" size="4" shape="1" element_type="f32"/>
			<output>
				<port id="1" precision="FP32">
					<dim>1</dim>
				</port>
			</output>
		</layer>
		<layer id="398" name="30703074_const" type="Const" version="opset1">
			<data offset="2278224" size="512" shape="128,1,1,1" element_type="f32"/>
			<output>
				<port id="1" precision="FP32">
					<dim>128</dim>
					<dim>1</dim>
					<dim>1</dim>
					<dim>1</dim>
				</port>
			</output>
		</layer>
		<layer id="399" name="30713075_const" type="Const" version="opset1">
			<data offset="2278736" size="512" shape="128,1,1,1" element_type="f32"/>
			<output>
				<port id="1" precision="FP32">
					<dim>128</dim>
					<dim>1</dim>
					<dim>1</dim>
					<dim>1</dim>
				</port>
			</output>
		</layer>
		<layer id="400" name="conv2d_20/Conv2D/fq_weights_1" type="FakeQuantize" version="opset1">
			<data levels="255"/>
			<input>
				<port id="0">
					<dim>128</dim>
					<dim>256</dim>
					<dim>1</dim>
					<dim>1</dim>
				</port>
				<port id="1">
					<dim>1</dim>
				</port>
				<port id="2">
					<dim>1</dim>
				</port>
				<port id="3">
					<dim>128</dim>
					<dim>1</dim>
					<dim>1</dim>
					<dim>1</dim>
				</port>
				<port id="4">
					<dim>128</dim>
					<dim>1</dim>
					<dim>1</dim>
					<dim>1</dim>
				</port>
			</input>
			<output>
				<port id="5" precision="FP32">
					<dim>128</dim>
					<dim>256</dim>
					<dim>1</dim>
					<dim>1</dim>
				</port>
			</output>
		</layer>
		<layer id="401" name="conv2d_20/Conv2D" type="Convolution" version="opset1">
			<data auto_pad="same_upper" strides="1,1" dilations="1,1" pads_begin="0,0" pads_end="0,0" output_padding="0,0"/>
			<input>
				<port id="0">
					<dim>1</dim>
					<dim>256</dim>
					<dim>52</dim>
					<dim>52</dim>
				</port>
				<port id="1">
					<dim>128</dim>
					<dim>256</dim>
					<dim>1</dim>
					<dim>1</dim>
				</port>
			</input>
			<output>
				<port id="2" precision="FP32">
					<dim>1</dim>
					<dim>128</dim>
					<dim>52</dim>
					<dim>52</dim>
				</port>
			</output>
		</layer>
		<layer id="402" name="data_add_135491355414089/EltwiseUnsqueeze14359_const626_const" type="Const" version="opset1">
			<data offset="2279248" size="512" shape="1,128,1,1" element_type="f32"/>
			<output>
				<port id="1" precision="FP32">
					<dim>1</dim>
					<dim>128</dim>
					<dim>1</dim>
					<dim>1</dim>
				</port>
			</output>
		</layer>
		<layer id="403" name="batch_normalization_20/FusedBatchNormV3/variance/Fused_Add_" type="Add" version="opset1">
			<input>
				<port id="0">
					<dim>1</dim>
					<dim>128</dim>
					<dim>52</dim>
					<dim>52</dim>
				</port>
				<port id="1">
					<dim>1</dim>
					<dim>128</dim>
					<dim>1</dim>
					<dim>1</dim>
				</port>
			</input>
			<output>
				<port id="2" precision="FP32">
					<dim>1</dim>
					<dim>128</dim>
					<dim>52</dim>
					<dim>52</dim>
				</port>
			</output>
		</layer>
		<layer id="404" name="leaky_re_lu_20/LeakyRelu/Cast_19236_const" type="Const" version="opset1">
			<data offset="1260" size="4" shape="1" element_type="f32"/>
			<output>
				<port id="1" precision="FP32">
					<dim>1</dim>
				</port>
			</output>
		</layer>
		<layer id="405" name="leaky_re_lu_20/LeakyRelu" type="PReLU" version="opset1">
			<input>
				<port id="0">
					<dim>1</dim>
					<dim>128</dim>
					<dim>52</dim>
					<dim>52</dim>
				</port>
				<port id="1">
					<dim>1</dim>
				</port>
			</input>
			<output>
				<port id="2" precision="FP32">
					<dim>1</dim>
					<dim>128</dim>
					<dim>52</dim>
					<dim>52</dim>
				</port>
			</output>
		</layer>
		<layer id="406" name="28382842_const" type="Const" version="opset1">
			<data offset="2279760" size="4" shape="" element_type="f32"/>
			<output>
				<port id="1" precision="FP32"/>
			</output>
		</layer>
		<layer id="407" name="28392843_const" type="Const" version="opset1">
			<data offset="2279764" size="4" shape="" element_type="f32"/>
			<output>
				<port id="1" precision="FP32"/>
			</output>
		</layer>
		<layer id="408" name="28402844_const" type="Const" version="opset1">
			<data offset="2279760" size="4" shape="" element_type="f32"/>
			<output>
				<port id="1" precision="FP32"/>
			</output>
		</layer>
		<layer id="409" name="28412845_const" type="Const" version="opset1">
			<data offset="2279764" size="4" shape="" element_type="f32"/>
			<output>
				<port id="1" precision="FP32"/>
			</output>
		</layer>
		<layer id="410" name="conv2d_21/Conv2D/fq_input_0" type="FakeQuantize" version="opset1">
			<data levels="256"/>
			<input>
				<port id="0">
					<dim>1</dim>
					<dim>128</dim>
					<dim>52</dim>
					<dim>52</dim>
				</port>
				<port id="1"/>
				<port id="2"/>
				<port id="3"/>
				<port id="4"/>
			</input>
			<output>
				<port id="5" precision="FP32">
					<dim>1</dim>
					<dim>128</dim>
					<dim>52</dim>
					<dim>52</dim>
				</port>
			</output>
		</layer>
		<layer id="411" name="conv2d_21/Conv2D/fq_weights_1/Convert_to_float/Cast_09376_const" type="Const" version="opset1">
			<data offset="2279768" size="294912" shape="256,128,3,3" element_type="u8"/>
			<output>
				<port id="1" precision="U8">
					<dim>256</dim>
					<dim>128</dim>
					<dim>3</dim>
					<dim>3</dim>
				</port>
			</output>
		</layer>
		<layer id="412" name="conv2d_21/Conv2D/fq_weights_1/Convert_to_float" type="Convert" version="opset1">
			<data destination_type="f32"/>
			<input>
				<port id="0">
					<dim>256</dim>
					<dim>128</dim>
					<dim>3</dim>
					<dim>3</dim>
				</port>
			</input>
			<output>
				<port id="1" precision="FP32">
					<dim>256</dim>
					<dim>128</dim>
					<dim>3</dim>
					<dim>3</dim>
				</port>
			</output>
		</layer>
		<layer id="413" name="conv2d_21/Conv2D/fq_weights_1/Copy/out_low8040_const" type="Const" version="opset1">
			<data offset="0" size="4" shape="1" element_type="f32"/>
			<output>
				<port id="1" precision="FP32">
					<dim>1</dim>
				</port>
			</output>
		</layer>
		<layer id="414" name="conv2d_21/Conv2D/fq_weights_1/Copy/out_high8041_const" type="Const" version="opset1">
			<data offset="872" size="4" shape="1" element_type="f32"/>
			<output>
				<port id="1" precision="FP32">
					<dim>1</dim>
				</port>
			</output>
		</layer>
		<layer id="415" name="28502854_const" type="Const" version="opset1">
			<data offset="2574680" size="1024" shape="256,1,1,1" element_type="f32"/>
			<output>
				<port id="1" precision="FP32">
					<dim>256</dim>
					<dim>1</dim>
					<dim>1</dim>
					<dim>1</dim>
				</port>
			</output>
		</layer>
		<layer id="416" name="28512855_const" type="Const" version="opset1">
			<data offset="2575704" size="1024" shape="256,1,1,1" element_type="f32"/>
			<output>
				<port id="1" precision="FP32">
					<dim>256</dim>
					<dim>1</dim>
					<dim>1</dim>
					<dim>1</dim>
				</port>
			</output>
		</layer>
		<layer id="417" name="conv2d_21/Conv2D/fq_weights_1" type="FakeQuantize" version="opset1">
			<data levels="255"/>
			<input>
				<port id="0">
					<dim>256</dim>
					<dim>128</dim>
					<dim>3</dim>
					<dim>3</dim>
				</port>
				<port id="1">
					<dim>1</dim>
				</port>
				<port id="2">
					<dim>1</dim>
				</port>
				<port id="3">
					<dim>256</dim>
					<dim>1</dim>
					<dim>1</dim>
					<dim>1</dim>
				</port>
				<port id="4">
					<dim>256</dim>
					<dim>1</dim>
					<dim>1</dim>
					<dim>1</dim>
				</port>
			</input>
			<output>
				<port id="5" precision="FP32">
					<dim>256</dim>
					<dim>128</dim>
					<dim>3</dim>
					<dim>3</dim>
				</port>
			</output>
		</layer>
		<layer id="418" name="conv2d_21/Conv2D" type="Convolution" version="opset1">
			<data auto_pad="same_upper" strides="1,1" dilations="1,1" pads_begin="0,0" pads_end="0,0" output_padding="0,0"/>
			<input>
				<port id="0">
					<dim>1</dim>
					<dim>128</dim>
					<dim>52</dim>
					<dim>52</dim>
				</port>
				<port id="1">
					<dim>256</dim>
					<dim>128</dim>
					<dim>3</dim>
					<dim>3</dim>
				</port>
			</input>
			<output>
				<port id="2" precision="FP32">
					<dim>1</dim>
					<dim>256</dim>
					<dim>52</dim>
					<dim>52</dim>
				</port>
			</output>
		</layer>
		<layer id="419" name="data_add_135571356214091/EltwiseUnsqueeze14367_const632_const" type="Const" version="opset1">
			<data offset="2576728" size="1024" shape="1,256,1,1" element_type="f32"/>
			<output>
				<port id="1" precision="FP32">
					<dim>1</dim>
					<dim>256</dim>
					<dim>1</dim>
					<dim>1</dim>
				</port>
			</output>
		</layer>
		<layer id="420" name="batch_normalization_21/FusedBatchNormV3/variance/Fused_Add_" type="Add" version="opset1">
			<input>
				<port id="0">
					<dim>1</dim>
					<dim>256</dim>
					<dim>52</dim>
					<dim>52</dim>
				</port>
				<port id="1">
					<dim>1</dim>
					<dim>256</dim>
					<dim>1</dim>
					<dim>1</dim>
				</port>
			</input>
			<output>
				<port id="2" precision="FP32">
					<dim>1</dim>
					<dim>256</dim>
					<dim>52</dim>
					<dim>52</dim>
				</port>
			</output>
		</layer>
		<layer id="421" name="leaky_re_lu_21/LeakyRelu/Cast_19358_const" type="Const" version="opset1">
			<data offset="1260" size="4" shape="1" element_type="f32"/>
			<output>
				<port id="1" precision="FP32">
					<dim>1</dim>
				</port>
			</output>
		</layer>
		<layer id="422" name="leaky_re_lu_21/LeakyRelu" type="PReLU" version="opset1">
			<input>
				<port id="0">
					<dim>1</dim>
					<dim>256</dim>
					<dim>52</dim>
					<dim>52</dim>
				</port>
				<port id="1">
					<dim>1</dim>
				</port>
			</input>
			<output>
				<port id="2" precision="FP32">
					<dim>1</dim>
					<dim>256</dim>
					<dim>52</dim>
					<dim>52</dim>
				</port>
			</output>
		</layer>
		<layer id="423" name="32083212_const" type="Const" version="opset1">
			<data offset="2577752" size="4" shape="" element_type="f32"/>
			<output>
				<port id="1" precision="FP32"/>
			</output>
		</layer>
		<layer id="424" name="32093213_const" type="Const" version="opset1">
			<data offset="2577756" size="4" shape="" element_type="f32"/>
			<output>
				<port id="1" precision="FP32"/>
			</output>
		</layer>
		<layer id="425" name="32103214_const" type="Const" version="opset1">
			<data offset="2577752" size="4" shape="" element_type="f32"/>
			<output>
				<port id="1" precision="FP32"/>
			</output>
		</layer>
		<layer id="426" name="32113215_const" type="Const" version="opset1">
			<data offset="2577756" size="4" shape="" element_type="f32"/>
			<output>
				<port id="1" precision="FP32"/>
			</output>
		</layer>
		<layer id="427" name="add_8/add/fq_input_1" type="FakeQuantize" version="opset1">
			<data levels="256"/>
			<input>
				<port id="0">
					<dim>1</dim>
					<dim>256</dim>
					<dim>52</dim>
					<dim>52</dim>
				</port>
				<port id="1"/>
				<port id="2"/>
				<port id="3"/>
				<port id="4"/>
			</input>
			<output>
				<port id="5" precision="FP32">
					<dim>1</dim>
					<dim>256</dim>
					<dim>52</dim>
					<dim>52</dim>
				</port>
			</output>
		</layer>
		<layer id="428" name="add_8/add" type="Add" version="opset1">
			<input>
				<port id="0">
					<dim>1</dim>
					<dim>256</dim>
					<dim>52</dim>
					<dim>52</dim>
				</port>
				<port id="1">
					<dim>1</dim>
					<dim>256</dim>
					<dim>52</dim>
					<dim>52</dim>
				</port>
			</input>
			<output>
				<port id="2" precision="FP32">
					<dim>1</dim>
					<dim>256</dim>
					<dim>52</dim>
					<dim>52</dim>
				</port>
			</output>
		</layer>
		<layer id="429" name="26982702_const" type="Const" version="opset1">
			<data offset="2577760" size="4" shape="" element_type="f32"/>
			<output>
				<port id="1" precision="FP32"/>
			</output>
		</layer>
		<layer id="430" name="26992703_const" type="Const" version="opset1">
			<data offset="2577764" size="4" shape="" element_type="f32"/>
			<output>
				<port id="1" precision="FP32"/>
			</output>
		</layer>
		<layer id="431" name="27002704_const" type="Const" version="opset1">
			<data offset="2577760" size="4" shape="" element_type="f32"/>
			<output>
				<port id="1" precision="FP32"/>
			</output>
		</layer>
…
		<edge from-layer="782" from-port="2" to-layer="787" to-port="0"/>
		<edge from-layer="783" from-port="1" to-layer="787" to-port="1"/>
		<edge from-layer="784" from-port="1" to-layer="787" to-port="2"/>
		<edge from-layer="785" from-port="1" to-layer="787" to-port="3"/>
		<edge from-layer="786" from-port="1" to-layer="787" to-port="4"/>
		<edge from-layer="788" from-port="1" to-layer="789" to-port="0"/>
		<edge from-layer="789" from-port="1" to-layer="794" to-port="0"/>
		<edge from-layer="790" from-port="1" to-layer="794" to-port="1"/>
		<edge from-layer="791" from-port="1" to-layer="794" to-port="2"/>
		<edge from-layer="792" from-port="1" to-layer="794" to-port="3"/>
		<edge from-layer="793" from-port="1" to-layer="794" to-port="4"/>
		<edge from-layer="787" from-port="5" to-layer="795" to-port="0"/>
		<edge from-layer="794" from-port="5" to-layer="795" to-port="1"/>
		<edge from-layer="795" from-port="2" to-layer="797" to-port="0"/>
		<edge from-layer="796" from-port="1" to-layer="797" to-port="1"/>
		<edge from-layer="797" from-port="2" to-layer="799" to-port="0"/>
		<edge from-layer="798" from-port="1" to-layer="799" to-port="1"/>
		<edge from-layer="799" from-port="2" to-layer="804" to-port="0"/>
		<edge from-layer="800" from-port="1" to-layer="804" to-port="1"/>
		<edge from-layer="801" from-port="1" to-layer="804" to-port="2"/>
		<edge from-layer="802" from-port="1" to-layer="804" to-port="3"/>
		<edge from-layer="803" from-port="1" to-layer="804" to-port="4"/>
		<edge from-layer="770" from-port="5" to-layer="805" to-port="0"/>
		<edge from-layer="804" from-port="5" to-layer="805" to-port="1"/>
		<edge from-layer="805" from-port="2" to-layer="810" to-port="0"/>
		<edge from-layer="806" from-port="1" to-layer="810" to-port="1"/>
		<edge from-layer="807" from-port="1" to-layer="810" to-port="2"/>
		<edge from-layer="808" from-port="1" to-layer="810" to-port="3"/>
		<edge from-layer="809" from-port="1" to-layer="810" to-port="4"/>
		<edge from-layer="811" from-port="1" to-layer="812" to-port="0"/>
		<edge from-layer="812" from-port="1" to-layer="817" to-port="0"/>
		<edge from-layer="813" from-port="1" to-layer="817" to-port="1"/>
		<edge from-layer="814" from-port="1" to-layer="817" to-port="2"/>
		<edge from-layer="815" from-port="1" to-layer="817" to-port="3"/>
		<edge from-layer="816" from-port="1" to-layer="817" to-port="4"/>
		<edge from-layer="810" from-port="5" to-layer="818" to-port="0"/>
		<edge from-layer="817" from-port="5" to-layer="818" to-port="1"/>
		<edge from-layer="818" from-port="2" to-layer="820" to-port="0"/>
		<edge from-layer="819" from-port="1" to-layer="820" to-port="1"/>
		<edge from-layer="820" from-port="2" to-layer="822" to-port="0"/>
		<edge from-layer="821" from-port="1" to-layer="822" to-port="1"/>
		<edge from-layer="822" from-port="2" to-layer="827" to-port="0"/>
		<edge from-layer="823" from-port="1" to-layer="827" to-port="1"/>
		<edge from-layer="824" from-port="1" to-layer="827" to-port="2"/>
		<edge from-layer="825" from-port="1" to-layer="827" to-port="3"/>
		<edge from-layer="826" from-port="1" to-layer="827" to-port="4"/>
		<edge from-layer="828" from-port="1" to-layer="829" to-port="0"/>
		<edge from-layer="829" from-port="1" to-layer="834" to-port="0"/>
		<edge from-layer="830" from-port="1" to-layer="834" to-port="1"/>
		<edge from-layer="831" from-port="1" to-layer="834" to-port="2"/>
		<edge from-layer="832" from-port="1" to-layer="834" to-port="3"/>
		<edge from-layer="833" from-port="1" to-layer="834" to-port="4"/>
		<edge from-layer="827" from-port="5" to-layer="835" to-port="0"/>
		<edge from-layer="834" from-port="5" to-layer="835" to-port="1"/>
		<edge from-layer="835" from-port="2" to-layer="837" to-port="0"/>
		<edge from-layer="836" from-port="1" to-layer="837" to-port="1"/>
		<edge from-layer="837" from-port="2" to-layer="839" to-port="0"/>
		<edge from-layer="838" from-port="1" to-layer="839" to-port="1"/>
		<edge from-layer="839" from-port="2" to-layer="844" to-port="0"/>
		<edge from-layer="840" from-port="1" to-layer="844" to-port="1"/>
		<edge from-layer="841" from-port="1" to-layer="844" to-port="2"/>
		<edge from-layer="842" from-port="1" to-layer="844" to-port="3"/>
		<edge from-layer="843" from-port="1" to-layer="844" to-port="4"/>
		<edge from-layer="810" from-port="5" to-layer="845" to-port="0"/>
		<edge from-layer="844" from-port="5" to-layer="845" to-port="1"/>
		<edge from-layer="845" from-port="2" to-layer="850" to-port="0"/>
		<edge from-layer="846" from-port="1" to-layer="850" to-port="1"/>
		<edge from-layer="847" from-port="1" to-layer="850" to-port="2"/>
		<edge from-layer="848" from-port="1" to-layer="850" to-port="3"/>
		<edge from-layer="849" from-port="1" to-layer="850" to-port="4"/>
		<edge from-layer="851" from-port="1" to-layer="852" to-port="0"/>
		<edge from-layer="852" from-port="1" to-layer="857" to-port="0"/>
		<edge from-layer="853" from-port="1" to-layer="857" to-port="1"/>
		<edge from-layer="854" from-port="1" to-layer="857" to-port="2"/>
		<edge from-layer="855" from-port="1" to-layer="857" to-port="3"/>
		<edge from-layer="856" from-port="1" to-layer="857" to-port="4"/>
		<edge from-layer="850" from-port="5" to-layer="858" to-port="0"/>
		<edge from-layer="857" from-port="5" to-layer="858" to-port="1"/>
		<edge from-layer="858" from-port="2" to-layer="860" to-port="0"/>
		<edge from-layer="859" from-port="1" to-layer="860" to-port="1"/>
		<edge from-layer="860" from-port="2" to-layer="862" to-port="0"/>
		<edge from-layer="861" from-port="1" to-layer="862" to-port="1"/>
		<edge from-layer="862" from-port="2" to-layer="867" to-port="0"/>
		<edge from-layer="863" from-port="1" to-layer="867" to-port="1"/>
		<edge from-layer="864" from-port="1" to-layer="867" to-port="2"/>
		<edge from-layer="865" from-port="1" to-layer="867" to-port="3"/>
		<edge from-layer="866" from-port="1" to-layer="867" to-port="4"/>
		<edge from-layer="868" from-port="1" to-layer="869" to-port="0"/>
		<edge from-layer="869" from-port="1" to-layer="874" to-port="0"/>
		<edge from-layer="870" from-port="1" to-layer="874" to-port="1"/>
		<edge from-layer="871" from-port="1" to-layer="874" to-port="2"/>
		<edge from-layer="872" from-port="1" to-layer="874" to-port="3"/>
		<edge from-layer="873" from-port="1" to-layer="874" to-port="4"/>
		<edge from-layer="867" from-port="5" to-layer="875" to-port="0"/>
		<edge from-layer="874" from-port="5" to-layer="875" to-port="1"/>
		<edge from-layer="875" from-port="2" to-layer="877" to-port="0"/>
		<edge from-layer="876" from-port="1" to-layer="877" to-port="1"/>
		<edge from-layer="877" from-port="2" to-layer="879" to-port="0"/>
		<edge from-layer="878" from-port="1" to-layer="879" to-port="1"/>
		<edge from-layer="879" from-port="2" to-layer="884" to-port="0"/>
		<edge from-layer="880" from-port="1" to-layer="884" to-port="1"/>
		<edge from-layer="881" from-port="1" to-layer="884" to-port="2"/>
		<edge from-layer="882" from-port="1" to-layer="884" to-port="3"/>
		<edge from-layer="883" from-port="1" to-layer="884" to-port="4"/>
		<edge from-layer="885" from-port="1" to-layer="886" to-port="0"/>
		<edge from-layer="886" from-port="1" to-layer="891" to-port="0"/>
		<edge from-layer="887" from-port="1" to-layer="891" to-port="1"/>
		<edge from-layer="888" from-port="1" to-layer="891" to-port="2"/>
		<edge from-layer="889" from-port="1" to-layer="891" to-port="3"/>
		<edge from-layer="890" from-port="1" to-layer="891" to-port="4"/>
		<edge from-layer="884" from-port="5" to-layer="892" to-port="0"/>
		<edge from-layer="891" from-port="5" to-layer="892" to-port="1"/>
		<edge from-layer="892" from-port="2" to-layer="894" to-port="0"/>
		<edge from-layer="893" from-port="1" to-layer="894" to-port="1"/>
		<edge from-layer="894" from-port="2" to-layer="896" to-port="0"/>
		<edge from-layer="895" from-port="1" to-layer="896" to-port="1"/>
		<edge from-layer="896" from-port="2" to-layer="901" to-port="0"/>
		<edge from-layer="897" from-port="1" to-layer="901" to-port="1"/>
		<edge from-layer="898" from-port="1" to-layer="901" to-port="2"/>
		<edge from-layer="899" from-port="1" to-layer="901" to-port="3"/>
		<edge from-layer="900" from-port="1" to-layer="901" to-port="4"/>
		<edge from-layer="867" from-port="5" to-layer="902" to-port="0"/>
		<edge from-layer="901" from-port="5" to-layer="902" to-port="1"/>
		<edge from-layer="902" from-port="2" to-layer="907" to-port="0"/>
		<edge from-layer="903" from-port="1" to-layer="907" to-port="1"/>
		<edge from-layer="904" from-port="1" to-layer="907" to-port="2"/>
		<edge from-layer="905" from-port="1" to-layer="907" to-port="3"/>
		<edge from-layer="906" from-port="1" to-layer="907" to-port="4"/>
		<edge from-layer="908" from-port="1" to-layer="909" to-port="0"/>
		<edge from-layer="909" from-port="1" to-layer="914" to-port="0"/>
		<edge from-layer="910" from-port="1" to-layer="914" to-port="1"/>
		<edge from-layer="911" from-port="1" to-layer="914" to-port="2"/>
		<edge from-layer="912" from-port="1" to-layer="914" to-port="3"/>
		<edge from-layer="913" from-port="1" to-layer="914" to-port="4"/>
		<edge from-layer="907" from-port="5" to-layer="915" to-port="0"/>
		<edge from-layer="914" from-port="5" to-layer="915" to-port="1"/>
		<edge from-layer="915" from-port="2" to-layer="917" to-port="0"/>
		<edge from-layer="916" from-port="1" to-layer="917" to-port="1"/>
		<edge from-layer="917" from-port="2" to-layer="919" to-port="0"/>
		<edge from-layer="918" from-port="1" to-layer="919" to-port="1"/>
		<edge from-layer="919" from-port="2" to-layer="924" to-port="0"/>
		<edge from-layer="920" from-port="1" to-layer="924" to-port="1"/>
		<edge from-layer="921" from-port="1" to-layer="924" to-port="2"/>
		<edge from-layer="922" from-port="1" to-layer="924" to-port="3"/>
		<edge from-layer="923" from-port="1" to-layer="924" to-port="4"/>
		<edge from-layer="925" from-port="1" to-layer="926" to-port="0"/>
		<edge from-layer="926" from-port="1" to-layer="931" to-port="0"/>
		<edge from-layer="927" from-port="1" to-layer="931" to-port="1"/>
		<edge from-layer="928" from-port="1" to-layer="931" to-port="2"/>
		<edge from-layer="929" from-port="1" to-layer="931" to-port="3"/>
		<edge from-layer="930" from-port="1" to-layer="931" to-port="4"/>
		<edge from-layer="924" from-port="5" to-layer="932" to-port="0"/>
		<edge from-layer="931" from-port="5" to-layer="932" to-port="1"/>
		<edge from-layer="932" from-port="2" to-layer="934" to-port="0"/>
		<edge from-layer="933" from-port="1" to-layer="934" to-port="1"/>
		<edge from-layer="934" from-port="2" to-layer="936" to-port="0"/>
		<edge from-layer="935" from-port="1" to-layer="936" to-port="1"/>
		<edge from-layer="936" from-port="2" to-layer="941" to-port="0"/>
		<edge from-layer="937" from-port="1" to-layer="941" to-port="1"/>
		<edge from-layer="938" from-port="1" to-layer="941" to-port="2"/>
		<edge from-layer="939" from-port="1" to-layer="941" to-port="3"/>
		<edge from-layer="940" from-port="1" to-layer="941" to-port="4"/>
		<edge from-layer="907" from-port="5" to-layer="942" to-port="0"/>
		<edge from-layer="941" from-port="5" to-layer="942" to-port="1"/>
		<edge from-layer="942" from-port="2" to-layer="947" to-port="0"/>
		<edge from-layer="943" from-port="1" to-layer="947" to-port="1"/>
		<edge from-layer="944" from-port="1" to-layer="947" to-port="2"/>
		<edge from-layer="945" from-port="1" to-layer="947" to-port="3"/>
		<edge from-layer="946" from-port="1" to-layer="947" to-port="4"/>
		<edge from-layer="948" from-port="1" to-layer="949" to-port="0"/>
		<edge from-layer="949" from-port="1" to-layer="954" to-port="0"/>
		<edge from-layer="950" from-port="1" to-layer="954" to-port="1"/>
		<edge from-layer="951" from-port="1" to-layer="954" to-port="2"/>
		<edge from-layer="952" from-port="1" to-layer="954" to-port="3"/>
		<edge from-layer="953" from-port="1" to-layer="954" to-port="4"/>
		<edge from-layer="947" from-port="5" to-layer="955" to-port="0"/>
		<edge from-layer="954" from-port="5" to-layer="955" to-port="1"/>
		<edge from-layer="955" from-port="2" to-layer="957" to-port="0"/>
		<edge from-layer="956" from-port="1" to-layer="957" to-port="1"/>
		<edge from-layer="957" from-port="2" to-layer="959" to-port="0"/>
		<edge from-layer="958" from-port="1" to-layer="959" to-port="1"/>
		<edge from-layer="959" from-port="2" to-layer="964" to-port="0"/>
		<edge from-layer="960" from-port="1" to-layer="964" to-port="1"/>
		<edge from-layer="961" from-port="1" to-layer="964" to-port="2"/>
		<edge from-layer="962" from-port="1" to-layer="964" to-port="3"/>
		<edge from-layer="963" from-port="1" to-layer="964" to-port="4"/>
		<edge from-layer="965" from-port="1" to-layer="966" to-port="0"/>
		<edge from-layer="966" from-port="1" to-layer="971" to-port="0"/>
		<edge from-layer="967" from-port="1" to-layer="971" to-port="1"/>
		<edge from-layer="968" from-port="1" to-layer="971" to-port="2"/>
		<edge from-layer="969" from-port="1" to-layer="971" to-port="3"/>
		<edge from-layer="970" from-port="1" to-layer="971" to-port="4"/>
		<edge from-layer="964" from-port="5" to-layer="972" to-port="0"/>
		<edge from-layer="971" from-port="5" to-layer="972" to-port="1"/>
		<edge from-layer="972" from-port="2" to-layer="974" to-port="0"/>
		<edge from-layer="973" from-port="1" to-layer="974" to-port="1"/>
		<edge from-layer="974" from-port="2" to-layer="976" to-port="0"/>
		<edge from-layer="975" from-port="1" to-layer="976" to-port="1"/>
		<edge from-layer="976" from-port="2" to-layer="981" to-port="0"/>
		<edge from-layer="977" from-port="1" to-layer="981" to-port="1"/>
		<edge from-layer="978" from-port="1" to-layer="981" to-port="2"/>
		<edge from-layer="979" from-port="1" to-layer="981" to-port="3"/>
		<edge from-layer="980" from-port="1" to-layer="981" to-port="4"/>
		<edge from-layer="947" from-port="5" to-layer="982" to-port="0"/>
		<edge from-layer="981" from-port="5" to-layer="982" to-port="1"/>
		<edge from-layer="982" from-port="2" to-layer="987" to-port="0"/>
		<edge from-layer="983" from-port="1" to-layer="987" to-port="1"/>
		<edge from-layer="984" from-port="1" to-layer="987" to-port="2"/>
		<edge from-layer="985" from-port="1" to-layer="987" to-port="3"/>
		<edge from-layer="986" from-port="1" to-layer="987" to-port="4"/>
		<edge from-layer="988" from-port="1" to-layer="989" to-port="0"/>
		<edge from-layer="989" from-port="1" to-layer="994" to-port="0"/>
		<edge from-layer="990" from-port="1" to-layer="994" to-port="1"/>
		<edge from-layer="991" from-port="1" to-layer="994" to-port="2"/>
		<edge from-layer="992" from-port="1" to-layer="994" to-port="3"/>
		<edge from-layer="993" from-port="1" to-layer="994" to-port="4"/>
		<edge from-layer="987" from-port="5" to-layer="995" to-port="0"/>
		<edge from-layer="994" from-port="5" to-layer="995" to-port="1"/>
		<edge from-layer="995" from-port="2" to-layer="997" to-port="0"/>
		<edge from-layer="996" from-port="1" to-layer="997" to-port="1"/>
		<edge from-layer="997" from-port="2" to-layer="999" to-port="0"/>
		<edge from-layer="998" from-port="1" to-layer="999" to-port="1"/>
		<edge from-layer="999" from-port="2" to-layer="1004" to-port="0"/>
		<edge from-layer="1000" from-port="1" to-layer="1004" to-port="1"/>
		<edge from-layer="1001" from-port="1" to-layer="1004" to-port="2"/>
		<edge from-layer="1002" from-port="1" to-layer="1004" to-port="3"/>
		<edge from-layer="1003" from-port="1" to-layer="1004" to-port="4"/>
		<edge from-layer="1005" from-port="1" to-layer="1006" to-port="0"/>
		<edge from-layer="1006" from-port="1" to-layer="1011" to-port="0"/>
		<edge from-layer="1007" from-port="1" to-layer="1011" to-port="1"/>
		<edge from-layer="1008" from-port="1" to-layer="1011" to-port="2"/>
		<edge from-layer="1009" from-port="1" to-layer="1011" to-port="3"/>
		<edge from-layer="1010" from-port="1" to-layer="1011" to-port="4"/>
		<edge from-layer="1004" from-port="5" to-layer="1012" to-port="0"/>
		<edge from-layer="1011" from-port="5" to-layer="1012" to-port="1"/>
		<edge from-layer="1012" from-port="2" to-layer="1014" to-port="0"/>
		<edge from-layer="1013" from-port="1" to-layer="1014" to-port="1"/>
		<edge from-layer="1014" from-port="2" to-layer="1016" to-port="0"/>
		<edge from-layer="1015" from-port="1" to-layer="1016" to-port="1"/>
		<edge from-layer="1016" from-port="2" to-layer="1021" to-port="0"/>
		<edge from-layer="1017" from-port="1" to-layer="1021" to-port="1"/>
		<edge from-layer="1018" from-port="1" to-layer="1021" to-port="2"/>
		<edge from-layer="1019" from-port="1" to-layer="1021" to-port="3"/>
		<edge from-layer="1020" from-port="1" to-layer="1021" to-port="4"/>
		<edge from-layer="987" from-port="5" to-layer="1022" to-port="0"/>
		<edge from-layer="1021" from-port="5" to-layer="1022" to-port="1"/>
		<edge from-layer="1022" from-port="2" to-layer="1027" to-port="0"/>
		<edge from-layer="1023" from-port="1" to-layer="1027" to-port="1"/>
		<edge from-layer="1024" from-port="1" to-layer="1027" to-port="2"/>
		<edge from-layer="1025" from-port="1" to-layer="1027" to-port="3"/>
		<edge from-layer="1026" from-port="1" to-layer="1027" to-port="4"/>
		<edge from-layer="1028" from-port="1" to-layer="1029" to-port="0"/>
		<edge from-layer="1029" from-port="1" to-layer="1034" to-port="0"/>
		<edge from-layer="1030" from-port="1" to-layer="1034" to-port="1"/>
		<edge from-layer="1031" from-port="1" to-layer="1034" to-port="2"/>
		<edge from-layer="1032" from-port="1" to-layer="1034" to-port="3"/>
		<edge from-layer="1033" from-port="1" to-layer="1034" to-port="4"/>
		<edge from-layer="1027" from-port="5" to-layer="1035" to-port="0"/>
		<edge from-layer="1034" from-port="5" to-layer="1035" to-port="1"/>
		<edge from-layer="1035" from-port="2" to-layer="1037" to-port="0"/>
		<edge from-layer="1036" from-port="1" to-layer="1037" to-port="1"/>
		<edge from-layer="1037" from-port="2" to-layer="1039" to-port="0"/>
		<edge from-layer="1038" from-port="1" to-layer="1039" to-port="1"/>
		<edge from-layer="1039" from-port="2" to-layer="1044" to-port="0"/>
		<edge from-layer="1040" from-port="1" to-layer="1044" to-port="1"/>
		<edge from-layer="1041" from-port="1" to-layer="1044" to-port="2"/>
		<edge from-layer="1042" from-port="1" to-layer="1044" to-port="3"/>
		<edge from-layer="1043" from-port="1" to-layer="1044" to-port="4"/>
		<edge from-layer="1045" from-port="1" to-layer="1046" to-port="0"/>
		<edge from-layer="1046" from-port="1" to-layer="1051" to-port="0"/>
		<edge from-layer="1047" from-port="1" to-layer="1051" to-port="1"/>
		<edge from-layer="1048" from-port="1" to-layer="1051" to-port="2"/>
		<edge from-layer="1049" from-port="1" to-layer="1051" to-port="3"/>
		<edge from-layer="1050" from-port="1" to-layer="1051" to-port="4"/>
		<edge from-layer="1044" from-port="5" to-layer="1052" to-port="0"/>
		<edge from-layer="1051" from-port="5" to-layer="1052" to-port="1"/>
		<edge from-layer="1052" from-port="2" to-layer="1054" to-port="0"/>
		<edge from-layer="1053" from-port="1" to-layer="1054" to-port="1"/>
		<edge from-layer="1054" from-port="2" to-layer="1056" to-port="0"/>
		<edge from-layer="1055" from-port="1" to-layer="1056" to-port="1"/>
		<edge from-layer="1056" from-port="2" to-layer="1061" to-port="0"/>
		<edge from-layer="1057" from-port="1" to-layer="1061" to-port="1"/>
		<edge from-layer="1058" from-port="1" to-layer="1061" to-port="2"/>
		<edge from-layer="1059" from-port="1" to-layer="1061" to-port="3"/>
		<edge from-layer="1060" from-port="1" to-layer="1061" to-port="4"/>
		<edge from-layer="1062" from-port="1" to-layer="1063" to-port="0"/>
		<edge from-layer="1063" from-port="1" to-layer="1068" to-port="0"/>
		<edge from-layer="1064" from-port="1" to-layer="1068" to-port="1"/>
		<edge from-layer="1065" from-port="1" to-layer="1068" to-port="2"/>
		<edge from-layer="1066" from-port="1" to-layer="1068" to-port="3"/>
		<edge from-layer="1067" from-port="1" to-layer="1068" to-port="4"/>
		<edge from-layer="1061" from-port="5" to-layer="1069" to-port="0"/>
		<edge from-layer="1068" from-port="5" to-layer="1069" to-port="1"/>
		<edge from-layer="1069" from-port="2" to-layer="1071" to-port="0"/>
		<edge from-layer="1070" from-port="1" to-layer="1071" to-port="1"/>
		<edge from-layer="1071" from-port="2" to-layer="1073" to-port="0"/>
		<edge from-layer="1072" from-port="1" to-layer="1073" to-port="1"/>
		<edge from-layer="1073" from-port="2" to-layer="1078" to-port="0"/>
		<edge from-layer="1074" from-port="1" to-layer="1078" to-port="1"/>
		<edge from-layer="1075" from-port="1" to-layer="1078" to-port="2"/>
		<edge from-layer="1076" from-port="1" to-layer="1078" to-port="3"/>
		<edge from-layer="1077" from-port="1" to-layer="1078" to-port="4"/>
		<edge from-layer="1079" from-port="1" to-layer="1080" to-port="0"/>
		<edge from-layer="1080" from-port="1" to-layer="1085" to-port="0"/>
		<edge from-layer="1081" from-port="1" to-layer="1085" to-port="1"/>
		<edge from-layer="1082" from-port="1" to-layer="1085" to-port="2"/>
		<edge from-layer="1083" from-port="1" to-layer="1085" to-port="3"/>
		<edge from-layer="1084" from-port="1" to-layer="1085" to-port="4"/>
		<edge from-layer="1078" from-port="5" to-layer="1086" to-port="0"/>
		<edge from-layer="1085" from-port="5" to-layer="1086" to-port="1"/>
		<edge from-layer="1086" from-port="2" to-layer="1088" to-port="0"/>
		<edge from-layer="1087" from-port="1" to-layer="1088" to-port="1"/>
		<edge from-layer="1088" from-port="2" to-layer="1090" to-port="0"/>
		<edge from-layer="1089" from-port="1" to-layer="1090" to-port="1"/>
		<edge from-layer="1090" from-port="2" to-layer="1095" to-port="0"/>
		<edge from-layer="1091" from-port="1" to-layer="1095" to-port="1"/>
		<edge from-layer="1092" from-port="1" to-layer="1095" to-port="2"/>
		<edge from-layer="1093" from-port="1" to-layer="1095" to-port="3"/>
		<edge from-layer="1094" from-port="1" to-layer="1095" to-port="4"/>
		<edge from-layer="1096" from-port="1" to-layer="1097" to-port="0"/>
		<edge from-layer="1097" from-port="1" to-layer="1102" to-port="0"/>
		<edge from-layer="1098" from-port="1" to-layer="1102" to-port="1"/>
		<edge from-layer="1099" from-port="1" to-layer="1102" to-port="2"/>
		<edge from-layer="1100" from-port="1" to-layer="1102" to-port="3"/>
		<edge from-layer="1101" from-port="1" to-layer="1102" to-port="4"/>
		<edge from-layer="1095" from-port="5" to-layer="1103" to-port="0"/>
		<edge from-layer="1102" from-port="5" to-layer="1103" to-port="1"/>
		<edge from-layer="1103" from-port="2" to-layer="1105" to-port="0"/>
		<edge from-layer="1104" from-port="1" to-layer="1105" to-port="1"/>
		<edge from-layer="1105" from-port="2" to-layer="1107" to-port="0"/>
		<edge from-layer="1106" from-port="1" to-layer="1107" to-port="1"/>
		<edge from-layer="1107" from-port="2" to-layer="1112" to-port="0"/>
		<edge from-layer="1108" from-port="1" to-layer="1112" to-port="1"/>
		<edge from-layer="1109" from-port="1" to-layer="1112" to-port="2"/>
		<edge from-layer="1110" from-port="1" to-layer="1112" to-port="3"/>
		<edge from-layer="1111" from-port="1" to-layer="1112" to-port="4"/>
		<edge from-layer="1113" from-port="1" to-layer="1114" to-port="0"/>
		<edge from-layer="1114" from-port="1" to-layer="1119" to-port="0"/>
		<edge from-layer="1115" from-port="1" to-layer="1119" to-port="1"/>
		<edge from-layer="1116" from-port="1" to-layer="1119" to-port="2"/>
		<edge from-layer="1117" from-port="1" to-layer="1119" to-port="3"/>
		<edge from-layer="1118" from-port="1" to-layer="1119" to-port="4"/>
		<edge from-layer="1112" from-port="5" to-layer="1120" to-port="0"/>
		<edge from-layer="1119" from-port="5" to-layer="1120" to-port="1"/>
		<edge from-layer="1120" from-port="2" to-layer="1122" to-port="0"/>
		<edge from-layer="1121" from-port="1" to-layer="1122" to-port="1"/>
		<edge from-layer="1122" from-port="2" to-layer="1124" to-port="0"/>
		<edge from-layer="1123" from-port="1" to-layer="1124" to-port="1"/>
		<edge from-layer="1124" from-port="2" to-layer="1129" to-port="0"/>
		<edge from-layer="1125" from-port="1" to-layer="1129" to-port="1"/>
		<edge from-layer="1126" from-port="1" to-layer="1129" to-port="2"/>
		<edge from-layer="1127" from-port="1" to-layer="1129" to-port="3"/>
		<edge from-layer="1128" from-port="1" to-layer="1129" to-port="4"/>
		<edge from-layer="1130" from-port="1" to-layer="1131" to-port="0"/>
		<edge from-layer="1131" from-port="1" to-layer="1136" to-port="0"/>
		<edge from-layer="1132" from-port="1" to-layer="1136" to-port="1"/>
		<edge from-layer="1133" from-port="1" to-layer="1136" to-port="2"/>
		<edge from-layer="1134" from-port="1" to-layer="1136" to-port="3"/>
		<edge from-layer="1135" from-port="1" to-layer="1136" to-port="4"/>
		<edge from-layer="1129" from-port="5" to-layer="1137" to-port="0"/>
		<edge from-layer="1136" from-port="5" to-layer="1137" to-port="1"/>
		<edge from-layer="1137" from-port="2" to-layer="1139" to-port="0"/>
		<edge from-layer="1138" from-port="1" to-layer="1139" to-port="1"/>
		<edge from-layer="1139" from-port="2" to-layer="1140" to-port="0"/>
		<edge from-layer="1140" from-port="1" to-layer="1141" to-port="0"/>
		<edge from-layer="1142" from-port="1" to-layer="1143" to-port="0"/>
		<edge from-layer="1143" from-port="1" to-layer="1148" to-port="0"/>
		<edge from-layer="1144" from-port="1" to-layer="1148" to-port="1"/>
		<edge from-layer="1145" from-port="1" to-layer="1148" to-port="2"/>
		<edge from-layer="1146" from-port="1" to-layer="1148" to-port="3"/>
		<edge from-layer="1147" from-port="1" to-layer="1148" to-port="4"/>
		<edge from-layer="1112" from-port="5" to-layer="1149" to-port="0"/>
		<edge from-layer="1148" from-port="5" to-layer="1149" to-port="1"/>
		<edge from-layer="1149" from-port="2" to-layer="1151" to-port="0"/>
		<edge from-layer="1150" from-port="1" to-layer="1151" to-port="1"/>
		<edge from-layer="1151" from-port="2" to-layer="1153" to-port="0"/>
		<edge from-layer="1152" from-port="1" to-layer="1153" to-port="1"/>
		<edge from-layer="1153" from-port="2" to-layer="1158" to-port="0"/>
		<edge from-layer="1154" from-port="1" to-layer="1158" to-port="1"/>
		<edge from-layer="1155" from-port="1" to-layer="1158" to-port="2"/>
		<edge from-layer="1156" from-port="1" to-layer="1158" to-port="3"/>
		<edge from-layer="1157" from-port="1" to-layer="1158" to-port="4"/>
		<edge from-layer="1153" from-port="2" to-layer="1159" to-port="0"/>
		<edge from-layer="1159" from-port="1" to-layer="1162" to-port="0"/>
		<edge from-layer="1160" from-port="1" to-layer="1162" to-port="1"/>
		<edge from-layer="1161" from-port="1" to-layer="1162" to-port="2"/>
		<edge from-layer="1162" from-port="3" to-layer="1166" to-port="0"/>
		<edge from-layer="1163" from-port="1" to-layer="1166" to-port="1"/>
		<edge from-layer="1164" from-port="1" to-layer="1166" to-port="2"/>
		<edge from-layer="1165" from-port="1" to-layer="1166" to-port="3"/>
		<edge from-layer="1166" from-port="4" to-layer="1168" to-port="0"/>
		<edge from-layer="1167" from-port="1" to-layer="1168" to-port="1"/>
		<edge from-layer="1168" from-port="2" to-layer="1169" to-port="0"/>
		<edge from-layer="1158" from-port="5" to-layer="1170" to-port="0"/>
		<edge from-layer="1169" from-port="1" to-layer="1170" to-port="1"/>
		<edge from-layer="1170" from-port="2" to-layer="1171" to-port="0"/>
		<edge from-layer="850" from-port="5" to-layer="1171" to-port="1"/>
		<edge from-layer="1172" from-port="1" to-layer="1173" to-port="0"/>
		<edge from-layer="1173" from-port="1" to-layer="1178" to-port="0"/>
		<edge from-layer="1174" from-port="1" to-layer="1178" to-port="1"/>
		<edge from-layer="1175" from-port="1" to-layer="1178" to-port="2"/>
		<edge from-layer="1176" from-port="1" to-layer="1178" to-port="3"/>
		<edge from-layer="1177" from-port="1" to-layer="1178" to-port="4"/>
		<edge from-layer="1171" from-port="2" to-layer="1179" to-port="0"/>
		<edge from-layer="1178" from-port="5" to-layer="1179" to-port="1"/>
		<edge from-layer="1179" from-port="2" to-layer="1181" to-port="0"/>
		<edge from-layer="1180" from-port="1" to-layer="1181" to-port="1"/>
		<edge from-layer="1181" from-port="2" to-layer="1183" to-port="0"/>
		<edge from-layer="1182" from-port="1" to-layer="1183" to-port="1"/>
		<edge from-layer="1183" from-port="2" to-layer="1188" to-port="0"/>
		<edge from-layer="1184" from-port="1" to-layer="1188" to-port="1"/>
		<edge from-layer="1185" from-port="1" to-layer="1188" to-port="2"/>
		<edge from-layer="1186" from-port="1" to-layer="1188" to-port="3"/>
		<edge from-layer="1187" from-port="1" to-layer="1188" to-port="4"/>
		<edge from-layer="1189" from-port="1" to-layer="1190" to-port="0"/>
		<edge from-layer="1190" from-port="1" to-layer="1195" to-port="0"/>
		<edge from-layer="1191" from-port="1" to-layer="1195" to-port="1"/>
		<edge from-layer="1192" from-port="1" to-layer="1195" to-port="2"/>
		<edge from-layer="1193" from-port="1" to-layer="1195" to-port="3"/>
		<edge from-layer="1194" from-port="1" to-layer="1195" to-port="4"/>
		<edge from-layer="1188" from-port="5" to-layer="1196" to-port="0"/>
		<edge from-layer="1195" from-port="5" to-layer="1196" to-port="1"/>
		<edge from-layer="1196" from-port="2" to-layer="1198" to-port="0"/>
		<edge from-layer="1197" from-port="1" to-layer="1198" to-port="1"/>
		<edge from-layer="1198" from-port="2" to-layer="1200" to-port="0"/>
		<edge from-layer="1199" from-port="1" to-layer="1200" to-port="1"/>
		<edge from-layer="1200" from-port="2" to-layer="1205" to-port="0"/>
		<edge from-layer="1201" from-port="1" to-layer="1205" to-port="1"/>
		<edge from-layer="1202" from-port="1" to-layer="1205" to-port="2"/>
		<edge from-layer="1203" from-port="1" to-layer="1205" to-port="3"/>
		<edge from-layer="1204" from-port="1" to-layer="1205" to-port="4"/>
		<edge from-layer="1206" from-port="1" to-layer="1207" to-port="0"/>
		<edge from-layer="1207" from-port="1" to-layer="1212" to-port="0"/>
		<edge from-layer="1208" from-port="1" to-layer="1212" to-port="1"/>
		<edge from-layer="1209" from-port="1" to-layer="1212" to-port="2"/>
		<edge from-layer="1210" from-port="1" to-layer="1212" to-port="3"/>
		<edge from-layer="1211" from-port="1" to-layer="1212" to-port="4"/>
		<edge from-layer="1205" from-port="5" to-layer="1213" to-port="0"/>
		<edge from-layer="1212" from-port="5" to-layer="1213" to-port="1"/>
		<edge from-layer="1213" from-port="2" to-layer="1215" to-port="0"/>
		<edge from-layer="1214" from-port="1" to-layer="1215" to-port="1"/>
		<edge from-layer="1215" from-port="2" to-layer="1217" to-port="0"/>
		<edge from-layer="1216" from-port="1" to-layer="1217" to-port="1"/>
		<edge from-layer="1217" from-port="2" to-layer="1222" to-port="0"/>
		<edge from-layer="1218" from-port="1" to-layer="1222" to-port="1"/>
		<edge from-layer="1219" from-port="1" to-layer="1222" to-port="2"/>
		<edge from-layer="1220" from-port="1" to-layer="1222" to-port="3"/>
		<edge from-layer="1221" from-port="1" to-layer="1222" to-port="4"/>
		<edge from-layer="1223" from-port="1" to-layer="1224" to-port="0"/>
		<edge from-layer="1224" from-port="1" to-layer="1229" to-port="0"/>
		<edge from-layer="1225" from-port="1" to-layer="1229" to-port="1"/>
		<edge from-layer="1226" from-port="1" to-layer="1229" to-port="2"/>
		<edge from-layer="1227" from-port="1" to-layer="1229" to-port="3"/>
		<edge from-layer="1228" from-port="1" to-layer="1229" to-port="4"/>
		<edge from-layer="1222" from-port="5" to-layer="1230" to-port="0"/>
		<edge from-layer="1229" from-port="5" to-layer="1230" to-port="1"/>
		<edge from-layer="1230" from-port="2" to-layer="1232" to-port="0"/>
		<edge from-layer="1231" from-port="1" to-layer="1232" to-port="1"/>
		<edge from-layer="1232" from-port="2" to-layer="1234" to-port="0"/>
		<edge from-layer="1233" from-port="1" to-layer="1234" to-port="1"/>
		<edge from-layer="1234" from-port="2" to-layer="1239" to-port="0"/>
		<edge from-layer="1235" from-port="1" to-layer="1239" to-port="1"/>
		<edge from-layer="1236" from-port="1" to-layer="1239" to-port="2"/>
		<edge from-layer="1237" from-port="1" to-layer="1239" to-port="3"/>
		<edge from-layer="1238" from-port="1" to-layer="1239" to-port="4"/>
		<edge from-layer="1240" from-port="1" to-layer="1241" to-port="0"/>
		<edge from-layer="1241" from-port="1" to-layer="1246" to-port="0"/>
		<edge from-layer="1242" from-port="1" to-layer="1246" to-port="1"/>
		<edge from-layer="1243" from-port="1" to-layer="1246" to-port="2"/>
		<edge from-layer="1244" from-port="1" to-layer="1246" to-port="3"/>
		<edge from-layer="1245" from-port="1" to-layer="1246" to-port="4"/>
		<edge from-layer="1239" from-port="5" to-layer="1247" to-port="0"/>
		<edge from-layer="1246" from-port="5" to-layer="1247" to-port="1"/>
		<edge from-layer="1247" from-port="2" to-layer="1249" to-port="0"/>
		<edge from-layer="1248" from-port="1" to-layer="1249" to-port="1"/>
		<edge from-layer="1249" from-port="2" to-layer="1251" to-port="0"/>
		<edge from-layer="1250" from-port="1" to-layer="1251" to-port="1"/>
		<edge from-layer="1251" from-port="2" to-layer="1256" to-port="0"/>
		<edge from-layer="1252" from-port="1" to-layer="1256" to-port="1"/>
		<edge from-layer="1253" from-port="1" to-layer="1256" to-port="2"/>
		<edge from-layer="1254" from-port="1" to-layer="1256" to-port="3"/>
		<edge from-layer="1255" from-port="1" to-layer="1256" to-port="4"/>
		<edge from-layer="1257" from-port="1" to-layer="1258" to-port="0"/>
		<edge from-layer="1258" from-port="1" to-layer="1263" to-port="0"/>
		<edge from-layer="1259" from-port="1" to-layer="1263" to-port="1"/>
		<edge from-layer="1260" from-port="1" to-layer="1263" to-port="2"/>
		<edge from-layer="1261" from-port="1" to-layer="1263" to-port="3"/>
		<edge from-layer="1262" from-port="1" to-layer="1263" to-port="4"/>
		<edge from-layer="1256" from-port="5" to-layer="1264" to-port="0"/>
		<edge from-layer="1263" from-port="5" to-layer="1264" to-port="1"/>
		<edge from-layer="1264" from-port="2" to-layer="1266" to-port="0"/>
		<edge from-layer="1265" from-port="1" to-layer="1266" to-port="1"/>
		<edge from-layer="1266" from-port="2" to-layer="1268" to-port="0"/>
		<edge from-layer="1267" from-port="1" to-layer="1268" to-port="1"/>
		<edge from-layer="1268" from-port="2" to-layer="1273" to-port="0"/>
		<edge from-layer="1269" from-port="1" to-layer="1273" to-port="1"/>
		<edge from-layer="1270" from-port="1" to-layer="1273" to-port="2"/>
		<edge from-layer="1271" from-port="1" to-layer="1273" to-port="3"/>
		<edge from-layer="1272" from-port="1" to-layer="1273" to-port="4"/>
		<edge from-layer="1274" from-port="1" to-layer="1275" to-port="0"/>
		<edge from-layer="1275" from-port="1" to-layer="1280" to-port="0"/>
		<edge from-layer="1276" from-port="1" to-layer="1280" to-port="1"/>
		<edge from-layer="1277" from-port="1" to-layer="1280" to-port="2"/>
		<edge from-layer="1278" from-port="1" to-layer="1280" to-port="3"/>
		<edge from-layer="1279" from-port="1" to-layer="1280" to-port="4"/>
		<edge from-layer="1273" from-port="5" to-layer="1281" to-port="0"/>
		<edge from-layer="1280" from-port="5" to-layer="1281" to-port="1"/>
		<edge from-layer="1281" from-port="2" to-layer="1283" to-port="0"/>
		<edge from-layer="1282" from-port="1" to-layer="1283" to-port="1"/>
		<edge from-layer="1283" from-port="2" to-layer="1284" to-port="0"/>
		<edge from-layer="1284" from-port="1" to-layer="1285" to-port="0"/>
		<edge from-layer="1286" from-port="1" to-layer="1287" to-port="0"/>
		<edge from-layer="1287" from-port="1" to-layer="1292" to-port="0"/>
		<edge from-layer="1288" from-port="1" to-layer="1292" to-port="1"/>
		<edge from-layer="1289" from-port="1" to-layer="1292" to-port="2"/>
		<edge from-layer="1290" from-port="1" to-layer="1292" to-port="3"/>
		<edge from-layer="1291" from-port="1" to-layer="1292" to-port="4"/>
		<edge from-layer="1256" from-port="5" to-layer="1293" to-port="0"/>
		<edge from-layer="1292" from-port="5" to-layer="1293" to-port="1"/>
		<edge from-layer="1293" from-port="2" to-layer="1295" to-port="0"/>
		<edge from-layer="1294" from-port="1" to-layer="1295" to-port="1"/>
		<edge from-layer="1295" from-port="2" to-layer="1297" to-port="0"/>
		<edge from-layer="1296" from-port="1" to-layer="1297" to-port="1"/>
		<edge from-layer="1297" from-port="2" to-layer="1302" to-port="0"/>
		<edge from-layer="1298" from-port="1" to-layer="1302" to-port="1"/>
		<edge from-layer="1299" from-port="1" to-layer="1302" to-port="2"/>
		<edge from-layer="1300" from-port="1" to-layer="1302" to-port="3"/>
		<edge from-layer="1301" from-port="1" to-layer="1302" to-port="4"/>
		<edge from-layer="1297" from-port="2" to-layer="1303" to-port="0"/>
		<edge from-layer="1303" from-port="1" to-layer="1306" to-port="0"/>
		<edge from-layer="1304" from-port="1" to-layer="1306" to-port="1"/>
		<edge from-layer="1305" from-port="1" to-layer="1306" to-port="2"/>
		<edge from-layer="1306" from-port="3" to-layer="1310" to-port="0"/>
		<edge from-layer="1307" from-port="1" to-layer="1310" to-port="1"/>
		<edge from-layer="1308" from-port="1" to-layer="1310" to-port="2"/>
		<edge from-layer="1309" from-port="1" to-layer="1310" to-port="3"/>
		<edge from-layer="1310" from-port="4" to-layer="1312" to-port="0"/>
		<edge from-layer="1311" from-port="1" to-layer="1312" to-port="1"/>
		<edge from-layer="1312" from-port="2" to-layer="1313" to-port="0"/>
		<edge from-layer="1302" from-port="5" to-layer="1314" to-port="0"/>
		<edge from-layer="1313" from-port="1" to-layer="1314" to-port="1"/>
		<edge from-layer="1314" from-port="2" to-layer="1315" to-port="0"/>
		<edge from-layer="513" from-port="5" to-layer="1315" to-port="1"/>
		<edge from-layer="1316" from-port="1" to-layer="1317" to-port="0"/>
		<edge from-layer="1317" from-port="1" to-layer="1322" to-port="0"/>
		<edge from-layer="1318" from-port="1" to-layer="1322" to-port="1"/>
		<edge from-layer="1319" from-port="1" to-layer="1322" to-port="2"/>
		<edge from-layer="1320" from-port="1" to-layer="1322" to-port="3"/>
		<edge from-layer="1321" from-port="1" to-layer="1322" to-port="4"/>
		<edge from-layer="1315" from-port="2" to-layer="1323" to-port="0"/>
		<edge from-layer="1322" from-port="5" to-layer="1323" to-port="1"/>
		<edge from-layer="1323" from-port="2" to-layer="1325" to-port="0"/>
		<edge from-layer="1324" from-port="1" to-layer="1325" to-port="1"/>
		<edge from-layer="1325" from-port="2" to-layer="1327" to-port="0"/>
		<edge from-layer="1326" from-port="1" to-layer="1327" to-port="1"/>
		<edge from-layer="1327" from-port="2" to-layer="1332" to-port="0"/>
		<edge from-layer="1328" from-port="1" to-layer="1332" to-port="1"/>
		<edge from-layer="1329" from-port="1" to-layer="1332" to-port="2"/>
		<edge from-layer="1330" from-port="1" to-layer="1332" to-port="3"/>
		<edge from-layer="1331" from-port="1" to-layer="1332" to-port="4"/>
		<edge from-layer="1333" from-port="1" to-layer="1334" to-port="0"/>
		<edge from-layer="1334" from-port="1" to-layer="1339" to-port="0"/>
		<edge from-layer="1335" from-port="1" to-layer="1339" to-port="1"/>
		<edge from-layer="1336" from-port="1" to-layer="1339" to-port="2"/>
		<edge from-layer="1337" from-port="1" to-layer="1339" to-port="3"/>
		<edge from-layer="1338" from-port="1" to-layer="1339" to-port="4"/>
		<edge from-layer="1332" from-port="5" to-layer="1340" to-port="0"/>
		<edge from-layer="1339" from-port="5" to-layer="1340" to-port="1"/>
		<edge from-layer="1340" from-port="2" to-layer="1342" to-port="0"/>
		<edge from-layer="1341" from-port="1" to-layer="1342" to-port="1"/>
		<edge from-layer="1342" from-port="2" to-layer="1344" to-port="0"/>
		<edge from-layer="1343" from-port="1" to-layer="1344" to-port="1"/>
		<edge from-layer="1344" from-port="2" to-layer="1349" to-port="0"/>
		<edge from-layer="1345" from-port="1" to-layer="1349" to-port="1"/>
		<edge from-layer="1346" from-port="1" to-layer="1349" to-port="2"/>
		<edge from-layer="1347" from-port="1" to-layer="1349" to-port="3"/>
		<edge from-layer="1348" from-port="1" to-layer="1349" to-port="4"/>
		<edge from-layer="1350" from-port="1" to-layer="1351" to-port="0"/>
		<edge from-layer="1351" from-port="1" to-layer="1356" to-port="0"/>
		<edge from-layer="1352" from-port="1" to-layer="1356" to-port="1"/>
		<edge from-layer="1353" from-port="1" to-layer="1356" to-port="2"/>
		<edge from-layer="1354" from-port="1" to-layer="1356" to-port="3"/>
		<edge from-layer="1355" from-port="1" to-layer="1356" to-port="4"/>
		<edge from-layer="1349" from-port="5" to-layer="1357" to-port="0"/>
		<edge from-layer="1356" from-port="5" to-layer="1357" to-port="1"/>
		<edge from-layer="1357" from-port="2" to-layer="1359" to-port="0"/>
		<edge from-layer="1358" from-port="1" to-layer="1359" to-port="1"/>
		<edge from-layer="1359" from-port="2" to-layer="1361" to-port="0"/>
		<edge from-layer="1360" from-port="1" to-layer="1361" to-port="1"/>
		<edge from-layer="1361" from-port="2" to-layer="1366" to-port="0"/>
		<edge from-layer="1362" from-port="1" to-layer="1366" to-port="1"/>
		<edge from-layer="1363" from-port="1" to-layer="1366" to-port="2"/>
		<edge from-layer="1364" from-port="1" to-layer="1366" to-port="3"/>
		<edge from-layer="1365" from-port="1" to-layer="1366" to-port="4"/>
		<edge from-layer="1367" from-port="1" to-layer="1368" to-port="0"/>
		<edge from-layer="1368" from-port="1" to-layer="1373" to-port="0"/>
		<edge from-layer="1369" from-port="1" to-layer="1373" to-port="1"/>
		<edge from-layer="1370" from-port="1" to-layer="1373" to-port="2"/>
		<edge from-layer="1371" from-port="1" to-layer="1373" to-port="3"/>
		<edge from-layer="1372" from-port="1" to-layer="1373" to-port="4"/>
		<edge from-layer="1366" from-port="5" to-layer="1374" to-port="0"/>
		<edge from-layer="1373" from-port="5" to-layer="1374" to-port="1"/>
		<edge from-layer="1374" from-port="2" to-layer="1376" to-port="0"/>
		<edge from-layer="1375" from-port="1" to-layer="1376" to-port="1"/>
		<edge from-layer="1376" from-port="2" to-layer="1378" to-port="0"/>
		<edge from-layer="1377" from-port="1" to-layer="1378" to-port="1"/>
		<edge from-layer="1378" from-port="2" to-layer="1383" to-port="0"/>
		<edge from-layer="1379" from-port="1" to-layer="1383" to-port="1"/>
		<edge from-layer="1380" from-port="1" to-layer="1383" to-port="2"/>
		<edge from-layer="1381" from-port="1" to-layer="1383" to-port="3"/>
		<edge from-layer="1382" from-port="1" to-layer="1383" to-port="4"/>
		<edge from-layer="1384" from-port="1" to-layer="1385" to-port="0"/>
		<edge from-layer="1385" from-port="1" to-layer="1390" to-port="0"/>
		<edge from-layer="1386" from-port="1" to-layer="1390" to-port="1"/>
		<edge from-layer="1387" from-port="1" to-layer="1390" to-port="2"/>
		<edge from-layer="1388" from-port="1" to-layer="1390" to-port="3"/>
		<edge from-layer="1389" from-port="1" to-layer="1390" to-port="4"/>
		<edge from-layer="1383" from-port="5" to-layer="1391" to-port="0"/>
		<edge from-layer="1390" from-port="5" to-layer="1391" to-port="1"/>
		<edge from-layer="1391" from-port="2" to-layer="1393" to-port="0"/>
		<edge from-layer="1392" from-port="1" to-layer="1393" to-port="1"/>
		<edge from-layer="1393" from-port="2" to-layer="1395" to-port="0"/>
		<edge from-layer="1394" from-port="1" to-layer="1395" to-port="1"/>
		<edge from-layer="1395" from-port="2" to-layer="1400" to-port="0"/>
		<edge from-layer="1396" from-port="1" to-layer="1400" to-port="1"/>
		<edge from-layer="1397" from-port="1" to-layer="1400" to-port="2"/>
		<edge from-layer="1398" from-port="1" to-layer="1400" to-port="3"/>
		<edge from-layer="1399" from-port="1" to-layer="1400" to-port="4"/>
		<edge from-layer="1401" from-port="1" to-layer="1402" to-port="0"/>
		<edge from-layer="1402" from-port="1" to-layer="1407" to-port="0"/>
		<edge from-layer="1403" from-port="1" to-layer="1407" to-port="1"/>
		<edge from-layer="1404" from-port="1" to-layer="1407" to-port="2"/>
		<edge from-layer="1405" from-port="1" to-layer="1407" to-port="3"/>
		<edge from-layer="1406" from-port="1" to-layer="1407" to-port="4"/>
		<edge from-layer="1400" from-port="5" to-layer="1408" to-port="0"/>
		<edge from-layer="1407" from-port="5" to-layer="1408" to-port="1"/>
		<edge from-layer="1408" from-port="2" to-layer="1410" to-port="0"/>
		<edge from-layer="1409" from-port="1" to-layer="1410" to-port="1"/>
		<edge from-layer="1410" from-port="2" to-layer="1412" to-port="0"/>
		<edge from-layer="1411" from-port="1" to-layer="1412" to-port="1"/>
		<edge from-layer="1412" from-port="2" to-layer="1417" to-port="0"/>
		<edge from-layer="1413" from-port="1" to-layer="1417" to-port="1"/>
		<edge from-layer="1414" from-port="1" to-layer="1417" to-port="2"/>
		<edge from-layer="1415" from-port="1" to-layer="1417" to-port="3"/>
		<edge from-layer="1416" from-port="1" to-layer="1417" to-port="4"/>
		<edge from-layer="1418" from-port="1" to-layer="1419" to-port="0"/>
		<edge from-layer="1419" from-port="1" to-layer="1424" to-port="0"/>
		<edge from-layer="1420" from-port="1" to-layer="1424" to-port="1"/>
		<edge from-layer="1421" from-port="1" to-layer="1424" to-port="2"/>
		<edge from-layer="1422" from-port="1" to-layer="1424" to-port="3"/>
		<edge from-layer="1423" from-port="1" to-layer="1424" to-port="4"/>
		<edge from-layer="1417" from-port="5" to-layer="1425" to-port="0"/>
		<edge from-layer="1424" from-port="5" to-layer="1425" to-port="1"/>
		<edge from-layer="1425" from-port="2" to-layer="1427" to-port="0"/>
		<edge from-layer="1426" from-port="1" to-layer="1427" to-port="1"/>
		<edge from-layer="1427" from-port="2" to-layer="1428" to-port="0"/>
		<edge from-layer="1428" from-port="1" to-layer="1429" to-port="0"/>
	</edges>
	<meta_data>
		<MO_version value="2021.2.0-1877-176bdf51370-releases/2021/2"/>
		<cli_parameters>
			<caffe_parser_path value="DIR"/>
			<data_type value="FP32"/>
			<disable_nhwc_to_nchw value="False"/>
			<disable_omitting_optional value="False"/>
			<disable_resnet_optimization value="False"/>
			<disable_weights_compression value="False"/>
			<enable_concat_optimization value="False"/>
			<enable_flattening_nested_params value="False"/>
			<enable_ssd_gluoncv value="False"/>
			<extensions value="DIR"/>
			<framework value="tf"/>
			<freeze_placeholder_with_value value="{}"/>
			<generate_deprecated_IR_V7 value="False"/>
			<input value="input_1"/>
			<input_model value="DIR/yolo-v3.pb"/>
			<input_model_is_text value="False"/>
			<input_shape value="[1,416,416,3]"/>
			<k value="DIR/CustomLayersMapping.xml"/>
			<keep_shape_ops value="True"/>
			<legacy_mxnet_model value="False"/>
			<log_level value="ERROR"/>
			<mean_scale_values value="{'input_1': {'mean': None, 'scale': array([255.])}}"/>
			<mean_values value="()"/>
			<model_name value="yolo-v3-tf"/>
			<output_dir value="DIR"/>
			<placeholder_data_types value="{}"/>
			<placeholder_shapes value="{'input_1': array([  1, 416, 416,   3])}"/>
			<progress value="False"/>
			<remove_memory value="False"/>
			<remove_output_softmax value="False"/>
			<reverse_input_channels value="True"/>
			<save_params_from_nd value="False"/>
			<scale_values value="input_1[255]"/>
			<silent value="False"/>
			<static_shape value="False"/>
			<stream_output value="False"/>
			<transformations_config value="DIR/yolo-v3.json"/>
			<unset unset_cli_parameters="batch, counts, disable_fusing, disable_gfusing, finegrain_fusing, input_checkpoint, input_meta_graph, input_proto, input_symbol, mean_file, mean_file_offsets, move_to_preprocess, nd_prefix_name, output, pretrained_model_name, saved_model_dir, saved_model_tags, scale, tensorboard_logdir, tensorflow_custom_layer_libraries, tensorflow_custom_operations_config_update, tensorflow_object_detection_api_pipeline_config, tensorflow_use_custom_operations_config"/>
		</cli_parameters>
	</meta_data>
	<quantization_parameters>
		<config>{
		'compression': {
			'algorithms': [
				{
					'name': 'DefaultQuantization',
					'params': {
						'preset': 'performance',
						'stat_subset_size': 300
					}
				}
			]
		},
		'engine': {
			'models': [
				{
					'name': 'yolo_v3_tf',
					'launchers': [
						{
							'framework': 'dlsdk',
							'device': 'CPU',
							'adapter': {
								'type': 'yolo_v3',
								'anchors': '10,13,  16,30,  33,23,  30,61,  62,45,  59,119,  116,90,  156,198,  373,326',
								'num': 9,
								'coords': 4,
								'classes': 80,
								'anchor_masks': [
									[
										6,
										7,
										8
									],
									[
										3,
										4,
										5
									],
									[
										0,
										1,
										2
									]
								],
								'outputs': [
									'conv2d_58/Conv2D/YoloRegion',
									'conv2d_66/Conv2D/YoloRegion',
									'conv2d_74/Conv2D/YoloRegion'
								]
							}
						}
					],
					'datasets': [
						{
							'name': 'ms_coco_detection_80_class_without_background',
							'annotation_conversion': {
								'converter': 'mscoco_detection',
								'annotation_file': 'PATH'
							},
							'data_source': 'PATH',
							'preprocessing': [
								{
									'type': 'resize',
									'size': 416
								}
							],
							'postprocessing': [
								{
									'type': 'resize_prediction_boxes'
								},
								{
									'type': 'filter',
									'apply_to': 'prediction',
									'min_confidence': 0.001,
									'remove_filtered': true
								},
								{
									'type': 'nms',
									'overlap': 0.5
								},
								{
									'type': 'clip_boxes',
									'apply_to': 'prediction'
								}
							],
							'metrics': [
								{
									'type': 'map',
									'integral': '11point',
									'ignore_difficult': true,
									'presenter': 'print_scalar'
								},
								{
									'type': 'coco_precision',
									'max_detections': 100,
									'threshold': 0.5
								}
							]
						}
					]
				}
			],
			'stat_requests_number': null,
			'eval_requests_number': null,
			'type': 'accuracy_checker'
		}
	}</config>
		<version value="1.0"/>
		<cli_params value="{'evaluate': False, 'output_dir': 'PATH', 'direct_dump': False, 'log_level': 'INFO', 'pbar': False, 'stream_output': False, 'keep_uncompressed_weights': False}"/>
	</quantization_parameters>
</net>
